3_Mapping_&_Model_Explanation/ERP_automl_model_HIAmean_shap.npy (npy, 537728 bytes, 1 tensors)

array f8 [5600, 12]
000000 67 d7 5c 76 a9 19 f7 3f 16 0e 1a 51 bf 08 e0 3f
       1.4437651275197483 0.5010677894610491
000010 c5 78 d6 f0 8d b5 a2 bf f5 56 45 a0 22 63 a2 3f
       -0.036541400574820616 0.03591259199553846
000020 b5 fb f3 d0 4b 12 ac 3f f6 5d 1c e6 80 2f f0 3f
       0.054827088601079245 1.0115975369170633
000030 fd 07 cd 02 5f 2c d1 3f 75 b6 76 25 31 67 f2 3f
       0.268333199248559 1.1501933539797424
000040 59 88 99 6e 78 0a e5 bf e8 07 07 b8 98 90 20 40
       -0.6575281295920475 8.282415152414572
000050 a5 38 72 e3 7b 95 bf 3f de d4 a2 af 3d 64 f9 3f
       0.12337469389805962 1.5869728909286134
000060 67 d7 5c 76 a9 19 f7 3f 16 0e 1a 51 bf 08 e0 3f
       1.4437651275197483 0.5010677894610491
000070 c5 78 d6 f0 8d b5 a2 bf f5 56 45 a0 22 63 a2 3f
       -0.036541400574820616 0.03591259199553846
000080 b5 fb f3 d0 4b 12 ac 3f f6 5d 1c e6 80 2f f0 3f
       0.054827088601079245 1.0115975369170633
000090 fd 07 cd 02 5f 2c d1 3f 75 b6 76 25 31 67 f2 3f
       0.268333199248559 1.1501933539797424
0000a0 59 88 99 6e 78 0a e5 bf e8 07 07 b8 98 90 20 40
       -0.6575281295920475 8.282415152414572
0000b0 a5 38 72 e3 7b 95 bf 3f de d4 a2 af 3d 64 f9 3f
       0.12337469389805962 1.5869728909286134
0000c0 67 d7 5c 76 a9 19 f7 3f 16 0e 1a 51 bf 08 e0 3f
       1.4437651275197483 0.5010677894610491
0000d0 c5 78 d6 f0 8d b5 a2 bf f5 56 45 a0 22 63 a2 3f
       -0.036541400574820616 0.03591259199553846
0000e0 b5 fb f3 d0 4b 12 ac 3f f6 5d 1c e6 80 2f f0 3f
       0.054827088601079245 1.0115975369170633
0000f0 fd 07 cd 02 5f 2c d1 3f 75 b6 76 25 31 67 f2 3f
       0.268333199248559 1.1501933539797424
000100 59 88 99 6e 78 0a e5 bf e8 07 07 b8 98 90 20 40
       -0.6575281295920475 8.282415152414572
000110 a5 38 72 e3 7b 95 bf 3f de d4 a2 af 3d 64 f9 3f
       0.12337469389805962 1.5869728909286134
000120 67 d7 5c 76 a9 19 f7 3f 16 0e 1a 51 bf 08 e0 3f
       1.4437651275197483 0.5010677894610491
000130 c5 78 d6 f0 8d b5 a2 bf f5 56 45 a0 22 63 a2 3f
       -0.036541400574820616 0.03591259199553846
000140 b5 fb f3 d0 4b 12 ac 3f f6 5d 1c e6 80 2f f0 3f
       0.054827088601079245 1.0115975369170633
000150 fd 07 cd 02 5f 2c d1 3f 75 b6 76 25 31 67 f2 3f
       0.268333199248559 1.1501933539797424
000160 59 88 99 6e 78 0a e5 bf e8 07 07 b8 98 90 20 40
       -0.6575281295920475 8.282415152414572
000170 a5 38 72 e3 7b 95 bf 3f de d4 a2 af 3d 64 f9 3f
       0.12337469389805962 1.5869728909286134
000180 67 d7 5c 76 a9 19 f7 3f 16 0e 1a 51 bf 08 e0 3f
       1.4437651275197483 0.5010677894610491
000190 c5 78 d6 f0 8d b5 a2 bf f5 56 45 a0 22 63 a2 3f
       -0.036541400574820616 0.03591259199553846
0001a0 b5 fb f3 d0 4b 12 ac 3f f6 5d 1c e6 80 2f f0 3f
       0.054827088601079245 1.0115975369170633
0001b0 fd 07 cd 02 5f 2c d1 3f 75 b6 76 25 31 67 f2 3f
       0.268333199248559 1.1501933539797424
0001c0 59 88 99 6e 78 0a e5 bf e8 07 07 b8 98 90 20 40
       -0.6575281295920475 8.282415152414572
0001d0 a5 38 72 e3 7b 95 bf 3f de d4 a2 af 3d 64 f9 3f
       0.12337469389805962 1.5869728909286134
0001e0 67 d7 5c 76 a9 19 f7 3f 16 0e 1a 51 bf 08 e0 3f
       1.4437651275197483 0.5010677894610491
0001f0 c5 78 d6 f0 8d b5 a2 bf f5 56 45 a0 22 63 a2 3f
       -0.036541400574820616 0.03591259199553846
000200 b5 fb f3 d0 4b 12 ac 3f f6 5d 1c e6 80 2f f0 3f
       0.054827088601079245 1.0115975369170633
000210 fd 07 cd 02 5f 2c d1 3f 75 b6 76 25 31 67 f2 3f
       0.268333199248559 1.1501933539797424
000220 59 88 99 6e 78 0a e5 bf e8 07 07 b8 98 90 20 40
       -0.6575281295920475 8.282415152414572
000230 a5 38 72 e3 7b 95 bf 3f de d4 a2 af 3d 64 f9 3f
       0.12337469389805962 1.5869728909286134
000240 b9 42 f3 d0 89 23 d1 3f bd 0a 88 ff b6 66 a3 bf
       0.26779408841415947 -0.03789302701263384
000250 b3 3b d5 92 5f 84 59 bf 65 0e 27 d4 57 d7 8f bf
       -0.0015574391685111266 -0.015547453081018856
000260 6a a6 26 72 36 52 70 bf d4 f6 70 71 d5 c8 6f bf
       -0.003984654120736767 -0.0038799446879512565
000270 c9 0d ba 6c 80 3f c6 3f 5b 30 9e f6 59 e2 94 bf
       0.1738129168407865 -0.020394712140430076
000280 30 2d dc 9f c1 3e b1 bf f6 c8 55 87 e4 51 dd bf
       -0.06736383583863836 -0.45812333313291675
000290 e9 41 8c bc ff 87 d4 bf 1a 1b ec 1f 29 58 e2 bf
       -0.3208007184303186 -0.5732617972833822
0002a0 67 d7 5c 76 a9 19 f7 3f 16 0e 1a 51 bf 08 e0 3f
       1.4437651275197483 0.5010677894610491
0002b0 c5 78 d6 f0 8d b5 a2 bf f5 56 45 a0 22 63 a2 3f
       -0.036541400574820616 0.03591259199553846
0002c0 b5 fb f3 d0 4b 12 ac 3f f6 5d 1c e6 80 2f f0 3f
       0.054827088601079245 1.0115975369170633
0002d0 fd 07 cd 02 5f 2c d1 3f 75 b6 76 25 31 67 f2 3f
       0.268333199248559 1.1501933539797424
0002e0 59 88 99 6e 78 0a e5 bf e8 07 07 b8 98 90 20 40
       -0.6575281295920475 8.282415152414572
0002f0 a5 38 72 e3 7b 95 bf 3f de d4 a2 af 3d 64 f9 3f
       0.12337469389805962 1.5869728909286134
000300 1d 95 04 09 60 aa d5 3f aa 66 61 fd 9f f3 a6 bf
       0.33852387314466786 -0.04482746093772268
000310 43 99 69 43 1d 50 95 3f cf dc 8d 1b 81 3f 99 bf
       0.020813424338848262 -0.02465631228139103
000320 b7 ba ba e2 f3 18 38 bf 5a ef 47 ab 71 ab 6f bf
       -0.0003676982330302158 -0.0038659305666878642
000330 2a 6b 5d 9e 95 cb c2 3f fa eb ca 53 c4 a0 91 bf
       0.14683790428792892 -0.01721483956746892
000340 90 82 55 4e 26 c2 b3 bf de 1a 0f 1e a4 6b e2 bf
       -0.07718123829318757 -0.5756397807207028
000350 e0 b2 33 ad 1d 34 c9 bf d5 86 20 25 04 e6 ca bf
       -0.19690295178533912 -0.21014453709454153
000360 54 95 a7 8e 10 fc d6 3f 94 3f 30 be c8 f8 a7 bf
       0.35913480692973576 -0.046819947449079496
000370 1a 6e 48 de c8 9a 90 3f c5 66 5e ab 3a 98 90 bf
       0.016215456549714437 -0.016205708226698663
000380 83 5d 2e 1c 18 20 51 3f 03 af f0 42 a7 1f 4b bf
       0.0010452495050453376 -0.0008277479845495154
000390 5d b0 5f 81 a0 26 c3 3f e2 71 62 80 77 2d 97 bf
       0.14961630169944132 -0.022634379588099558
0003a0 aa 69 f2 11 24 b8 b2 bf ff fc 09 df c0 c3 dc bf
       -0.07312226713330597 -0.44944783955720874
0003b0 dc fd a4 8d 91 f9 b9 bf 7b bc 1f a9 d9 8f a2 bf
       -0.10146436412923471 -0.036253740210548245
0003c0 a9 77 b8 ec f1 27 d7 3f e4 bf bd e9 2d 59 a5 bf
       0.36181305043452966 -0.0416960094288468
0003d0 34 5d df b9 47 7a 8a 3f 73 9d 91 87 52 92 90 bf
       0.012928543434027696 -0.016183175587142395
0003e0 82 79 07 1e f6 01 73 3f e9 13 5f 20 fd 06 55 bf
       0.004640542407712169 -0.0012834045351024454
0003f0 88 4d e7 33 ec b1 c3 3f b3 eb 63 62 63 71 93 bf
       0.15386726888992208 -0.018987229233043922
000400 ca 1a 67 95 64 97 b4 bf 6d 7a b8 26 f6 63 de bf
       -0.08043507239845407 -0.4748511675005947
000410 49 61 83 5e 50 84 be bf f4 2d 09 0e 7f 98 c3 bf
       -0.11920645053340197 -0.1530913179907284
000420 0c a8 07 52 77 ab d1 3f 29 4d 5d d4 26 2c a6 bf
       0.27609045992596815 -0.04330560057010253
000430 ae 47 09 ed d0 d5 8c 3f 21 08 61 36 0c 7e 99 bf
       0.014079696878216055 -0.024894896334679232
000440 54 5c ac cd a7 36 6e bf c0 07 54 ec 01 08 78 bf
       -0.0036881711397529857 -0.00586701155885011
000450 b2 70 10 60 2d b0 bf 3f d4 b3 2e 3f 4a 35 92 bf
       0.12378200145070897 -0.017781410318708016
000460 5b ed c7 30 de 36 b6 bf f1 6b 9f d7 92 f7 e2 bf
       -0.08677471819821873 -0.5927213870412499
000470 33 18 a2 38 91 34 cc bf bd 96 f5 ca 67 f1 d2 bf
       -0.22035422578136518 -0.29598421879050446
000480 fe 98 f7 2c 9e ab d6 3f ee 8a 7a a9 6a 34 a8 bf
       0.35422472373319625 -0.04727490729171345
000490 68 6a b9 ff 7e 3f 85 3f c0 17 21 74 46 9f 80 bf
       0.010375015429578485 -0.008116293353065518
0004a0 f2 2f da 11 2b df 41 bf 9e c5 b1 06 41 2d 67 bf
       -0.0005454025556033122 -0.002829195980262169
0004b0 a0 bb 25 59 b5 4a ca 3f 1a 30 4c 60 83 26 9e bf
       0.20540491917514903 -0.029443791153468714
0004c0 91 15 13 99 73 1c 75 bf 9b 95 39 bc b1 dc a1 3f
       -0.005154086641771542 0.03488688872020448
0004d0 97 1b d8 7f 4c 34 b5 bf ad ec 45 60 fa b9 a3 3f
       -0.08282926675029355 0.03852827477654706
0004e0 67 d7 5c 76 a9 19 f7 3f 16 0e 1a 51 bf 08 e0 3f
       1.4437651275197483 0.5010677894610491
0004f0 c5 78 d6 f0 8d b5 a2 bf f5 56 45 a0 22 63 a2 3f
       -0.036541400574820616 0.03591259199553846
000500 b5 fb f3 d0 4b 12 ac 3f f6 5d 1c e6 80 2f f0 3f
       0.054827088601079245 1.0115975369170633
000510 fd 07 cd 02 5f 2c d1 3f 75 b6 76 25 31 67 f2 3f
       0.268333199248559 1.1501933539797424
000520 59 88 99 6e 78 0a e5 bf e8 07 07 b8 98 90 20 40
       -0.6575281295920475 8.282415152414572
000530 a5 38 72 e3 7b 95 bf 3f de d4 a2 af 3d 64 f9 3f
       0.12337469389805962 1.5869728909286134
000540 34 60 72 da 38 4c da 3f 16 60 8a 4d bf f7 ac bf
       0.41090222675984767 -0.0565776617197004
000550 ac 3e 10 45 77 58 8a 3f 93 ba 89 d6 71 a9 82 bf
       0.012864047808789657 -0.009112252578430435
000560 d3 78 cc 69 45 d9 5a 3f 9e a6 ef a5 22 c4 53 bf
       0.0016387155403161837 -0.0012064302788935897
000570 37 84 a4 dd b7 54 c6 3f 66 b3 5b fb 8c ea 9b bf
       0.174460395072886 -0.02726192745369662
000580 ac d0 44 e6 17 ae a8 bf a8 11 39 12 ce 3b cf bf
       -0.04820322690866993 -0.24401260270873348
000590 cb bc e2 ad cc 81 a7 bf 3c e8 cc 61 5e 9d c4 bf
       -0.04591216681125728 -0.1610525109807116
0005a0 67 d7 5c 76 a9 19 f7 3f 16 0e 1a 51 bf 08 e0 3f
       1.4437651275197483 0.5010677894610491
0005b0 c5 78 d6 f0 8d b5 a2 bf f5 56 45 a0 22 63 a2 3f
       -0.036541400574820616 0.03591259199553846
0005c0 b5 fb f3 d0 4b 12 ac 3f f6 5d 1c e6 80 2f f0 3f
       0.054827088601079245 1.0115975369170633
0005d0 fd 07 cd 02 5f 2c d1 3f 75 b6 76 25 31 67 f2 3f
       0.268333199248559 1.1501933539797424
0005e0 59 88 99 6e 78 0a e5 bf e8 07 07 b8 98 90 20 40
       -0.6575281295920475 8.282415152414572
0005f0 a5 38 72 e3 7b 95 bf 3f de d4 a2 af 3d 64 f9 3f
       0.12337469389805962 1.5869728909286134
000600 65 37 29 7b e1 5a d9 3f a8 0e 09 f4 0f 9a aa bf
       0.39617192294541886 -0.0519566522021056
000610 8a 38 b6 02 22 6a 74 3f 1e f0 0f 08 cd 82 82 bf
       0.004984028676871097 -0.009038545425930574
000620 2f 70 ee 47 90 ce 6a bf 3b 55 99 b0 32 92 68 bf
       -0.0032723253238611453 -0.002999400142281642
000630 67 15 26 b4 5f 12 c2 3f 9b 01 84 76 bc fa 95 bf
       0.1411857251770627 -0.021464295133229432
000640 a7 67 7f 82 a3 48 b7 bf 6b 0d 90 3c 9b 3a df bf
       -0.09095212875345614 -0.48795205034567485
000650 b3 e7 7d 65 dd c9 bb bf c5 48 55 d5 ea 84 db bf
       -0.10854896285846287 -0.4299876292544805
000660 67 d7 5c 76 a9 19 f7 3f 16 0e 1a 51 bf 08 e0 3f
       1.4437651275197483 0.5010677894610491
000670 c5 78 d6 f0 8d b5 a2 bf f5 56 45 a0 22 63 a2 3f
       -0.036541400574820616 0.03591259199553846
000680 b5 fb f3 d0 4b 12 ac 3f f6 5d 1c e6 80 2f f0 3f
       0.054827088601079245 1.0115975369170633
000690 fd 07 cd 02 5f 2c d1 3f 75 b6 76 25 31 67 f2 3f
       0.268333199248559 1.1501933539797424
0006a0 59 88 99 6e 78 0a e5 bf e8 07 07 b8 98 90 20 40
       -0.6575281295920475 8.282415152414572
0006b0 a5 38 72 e3 7b 95 bf 3f de d4 a2 af 3d 64 f9 3f
       0.12337469389805962 1.5869728909286134
0006c0 1f 8a 2b 5e 9a fe d2 3f b7 99 d4 2a d5 7b a4 bf
       0.29678973385139956 -0.04000726840813534
0006d0 06 da b8 a3 89 50 90 3f f5 b9 fb cb ec bf 85 bf
       0.015932226770212686 -0.010619974112583622
0006e0 18 23 13 81 23 e8 75 3f 50 de f3 6d 44 be 6f bf
       0.005348337829851578 -0.0038749062074392784
0006f0 04 55 de cd 9a 94 c2 3f 27 56 29 5c 3d 01 93 bf
       0.14516005565807444 -0.018559416532602093
000700 2a 6d 30 ac 40 11 b3 bf 45 37 b0 f6 11 5d e3 bf
       -0.07448200420224241 -0.6051111047870356
000710 ee da d6 46 b3 7a d1 bf e5 66 2c 03 00 6f e2 bf
       -0.27311403196237805 -0.576049810598502
000720 3f b3 a6 e3 6b 54 d6 3f d3 dc 31 76 fd 0e a7 bf
       0.34890267592964 -0.045036240270684445
000730 5c 1d fb c2 0a 2b 80 3f aa 1b 24 1f 46 84 85 bf
       0.00789459617170845 -0.01050619871649679
000740 c1 0b d4 eb 16 43 71 bf 1a 10 f2 9f d3 88 80 bf
       -0.004214372192339278 -0.008073476141596859
000750 c7 d5 42 b8 64 e3 c4 3f bc f5 7b 6c 81 15 9a bf
       0.16318949696657922 -0.025472662206984728
000760 24 48 6c 9c 0e ed b3 bf 14 0a 46 51 d8 e3 dd bf
       -0.07783595389290149 -0.4670315545737662
000770 38 b0 7c a9 19 fd cb bf d9 74 10 27 2e c8 e4 bf
       -0.21866150642142812 -0.6494360697721745
000780 00 db 02 9e 80 a9 d6 3f 32 9b a0 02 5b 52 a9 bf
       0.3540956061437299 -0.04945644766876568
000790 57 3c 44 61 9e b4 86 3f bb 5f 9e 11 5f 28 91 bf
       0.01108669027646962 -0.016755567026478718
0007a0 f9 63 45 0e c1 98 4f 3f f9 9b 35 df 2d 6f 80 bf
       0.0009642546324740701 -0.008024557470617909
0007b0 ed af 10 fe 04 4f bf 3f ed 5c bc dc 93 ed 9a bf
       0.12229949190867702 -0.026296911571162807
0007c0 7c 87 1b 05 17 2d ba bf a5 49 80 60 33 da e0 bf
       -0.10225051760383325 -0.5266358265674184
0007d0 6f e8 f3 63 3e c2 c0 bf e8 d2 cf 8c 18 fb d4 bf
       -0.13092784767633556 -0.32782567740586765
0007e0 08 02 2e 70 db 6f d4 3f 9c 13 16 83 6d 02 a5 bf
       0.3193272204880775 -0.04103414750264919
0007f0 b2 e0 7e 17 d1 bd 81 3f 49 5c 24 8f 42 87 92 bf
       0.008662827996758746 -0.018094100939461098
