3_Mapping_&_Model_Explanation/ERP_automl_model_RH2Mmax_shap.npy (npy, 537728 bytes, 1 tensors)

array f8 [5600, 12]
0	0xbfe3fe6d06f18f59	-0.624807847558695
1	0xbfcfd4ce6c81b339	-0.24868183420348958
2	0xbfbaadaedfb006a7	-0.10421269379733165
3	0xbfb98fa1852fe8c1	-0.0998478841937951
4	0xbfdd6b8cbca5c76b	-0.45968931601156865
5	0x3fc313ad72f1a448	0.14903801071639777
6	0xbfdc93444f466523	-0.44648845426270806
7	0x3fe1f6967f9627ae	0.5613510600971858
8	0x3fe3158800c3e208	0.5963783278412516
9	0x4035ce618f430acc	21.806176141612738
10	0xbfccf3fc01c02199	-0.22619581304048778
11	0xc021fce7fb0f89c9	-8.993957372328525
12	0xbfe3fe6d06f18f59	-0.624807847558695
13	0xbfcfd4ce6c81b339	-0.24868183420348958
14	0xbfbaadaedfb006a7	-0.10421269379733165
15	0xbfb98fa1852fe8c1	-0.0998478841937951
16	0xbfdd6b8cbca5c76b	-0.45968931601156865
17	0x3fc313ad72f1a448	0.14903801071639777
18	0xbfdc93444f466523	-0.44648845426270806
19	0x3fe1f6967f9627ae	0.5613510600971858
20	0x3fe3158800c3e208	0.5963783278412516
21	0x4035ce618f430acc	21.806176141612738
22	0xbfccf3fc01c02199	-0.22619581304048778
23	0xc021fce7fb0f89c9	-8.993957372328525
24	0xbfe3fe6d06f18f59	-0.624807847558695
25	0xbfcfd4ce6c81b339	-0.24868183420348958
26	0xbfbaadaedfb006a7	-0.10421269379733165
27	0xbfb98fa1852fe8c1	-0.0998478841937951
28	0xbfdd6b8cbca5c76b	-0.45968931601156865
29	0x3fc313ad72f1a448	0.14903801071639777
30	0xbfdc93444f466523	-0.44648845426270806
31	0x3fe1f6967f9627ae	0.5613510600971858
32	0x3fe3158800c3e208	0.5963783278412516
33	0x4035ce618f430acc	21.806176141612738
34	0xbfccf3fc01c02199	-0.22619581304048778
35	0xc021fce7fb0f89c9	-8.993957372328525
36	0xbfe3fe6d06f18f59	-0.624807847558695
37	0xbfcfd4ce6c81b339	-0.24868183420348958
38	0xbfbaadaedfb006a7	-0.10421269379733165
39	0xbfb98fa1852fe8c1	-0.0998478841937951
40	0xbfdd6b8cbca5c76b	-0.45968931601156865
41	0x3fc313ad72f1a448	0.14903801071639777
42	0xbfdc93444f466523	-0.44648845426270806
43	0x3fe1f6967f9627ae	0.5613510600971858
44	0x3fe3158800c3e208	0.5963783278412516
45	0x4035ce618f430acc	21.806176141612738
46	0xbfccf3fc01c02199	-0.22619581304048778
47	0xc021fce7fb0f89c9	-8.993957372328525
48	0xbfe3fe6d06f18f59	-0.624807847558695
49	0xbfcfd4ce6c81b339	-0.24868183420348958
50	0xbfbaadaedfb006a7	-0.10421269379733165
51	0xbfb98fa1852fe8c1	-0.0998478841937951
52	0xbfdd6b8cbca5c76b	-0.45968931601156865
53	0x3fc313ad72f1a448	0.14903801071639777
54	0xbfdc93444f466523	-0.44648845426270806
55	0x3fe1f6967f9627ae	0.5613510600971858
56	0x3fe3158800c3e208	0.5963783278412516
57	0x4035ce618f430acc	21.806176141612738
58	0xbfccf3fc01c02199	-0.22619581304048778
59	0xc021fce7fb0f89c9	-8.993957372328525
60	0xbfe3fe6d06f18f59	-0.624807847558695
61	0xbfcfd4ce6c81b339	-0.24868183420348958
62	0xbfbaadaedfb006a7	-0.10421269379733165
63	0xbfb98fa1852fe8c1	-0.0998478841937951
64	0xbfdd6b8cbca5c76b	-0.45968931601156865
65	0x3fc313ad72f1a448	0.14903801071639777
66	0xbfdc93444f466523	-0.44648845426270806
67	0x3fe1f6967f9627ae	0.5613510600971858
68	0x3fe3158800c3e208	0.5963783278412516
69	0x4035ce618f430acc	21.806176141612738
70	0xbfccf3fc01c02199	-0.22619581304048778
71	0xc021fce7fb0f89c9	-8.993957372328525
72	0xbfc4e34421915788	-0.16318561209726234
73	0x3faf635a3c61a242	0.06130487429692667
74	0xbf9f6c8d71155be8	-0.030687532450737992
75	0x3fa63dc49827aab4	0.04344000203476153
76	0xbfb567651c17f141	-0.08360893188359332
77	0x3fb4ed14679b9bb3	0.08174254922378914
78	0xbfc906c269a1577e	-0.19551878125883698
79	0x3fbc95027cebe780	0.11164870786515557
80	0x3ff37c1ce3d422de	1.2178009891087451
81	0x40019429fe8fa3f2	2.197345722921903
82	0x3ff17d5d66fae246	1.0931066534668772
83	0x40108efd0003340a	4.139636993594658
84	0xbfe3fe6d06f18f59	-0.624807847558695
85	0xbfcfd4ce6c81b339	-0.24868183420348958
86	0xbfbaadaedfb006a7	-0.10421269379733165
87	0xbfb98fa1852fe8c1	-0.0998478841937951
88	0xbfdd6b8cbca5c76b	-0.45968931601156865
89	0x3fc313ad72f1a448	0.14903801071639777
90	0xbfdc93444f466523	-0.44648845426270806
91	0x3fe1f6967f9627ae	0.5613510600971858
92	0x3fe3158800c3e208	0.5963783278412516
93	0x4035ce618f430acc	21.806176141612738
94	0xbfccf3fc01c02199	-0.22619581304048778
95	0xc021fce7fb0f89c9	-8.993957372328525
96	0xbfd8005ce4755dd4	-0.37502214727780125
97	0x3fc223062c344939	0.14169385107431667
98	0xbfa0d0120f6424ca	-0.03283745229607289
99	0x3fb35e7344d0df0d	0.07565994672847527
100	0x3fab085e0097436d	0.052798211643341066
101	0xbfa1b64b95f14cb6	-0.03459392743447991
102	0xbfc64cbd34ebe24f	-0.17421689113668257
103	0xbf6071f6dcae26f0	-0.0020074674152440394
104	0x3ff7ccc628bbd246	1.4874936667594212
105	0x400cd5f5078a2632	3.604471262839774
106	0x3feb3ba3b96a0307	0.8510302182549773
107	0x40022a44b72a430d	2.270638876893264
108	0xbfe40b07ddfc43d2	-0.6263465247776543
109	0x3fc115e97fe593af	0.13348120446167175
110	0x3f6b09611e0e6f45	0.0033003708671922893
111	0x3fbb4e6e0762bf8d	0.1066654937774258
112	0x3f9c90812324c4eb	0.02789499070167249
113	0xbf4d4fa999b159ce	-0.0008945062758225987
114	0xbfc6ceb0432ddee2	-0.1781826332114554
115	0x3f9a18224d3d65ff	0.025482688869805866
116	0x3ff7d7532684c528	1.490069532836353
117	0x400a3b425dda6fc0	3.2789351780211007
118	0x3fa30aa3f765a520	0.03719055552466899
119	0x3fe4e8f90969b51e	0.6534390624853221
120	0xbfe254cf80f05276	-0.5728528517089007
121	0x3fc3c6924bb66162	0.15449742028136898
122	0xbf952f2f1655a393	-0.02068780492610107
123	0x3fbf7d372eb62840	0.12300438776415579
124	0x3f760d7ddfa9fa0f	0.005383960432139747
125	0xbf9c48b80420065d	-0.02762115025689692
126	0xbfc6c7c7f8975816	-0.17797183645478815
127	0x3fa9b1cbd63703a7	0.050184602641372415
128	0x3ff85ea3054cdbf3	1.523104687408474
129	0x4009a0be960bbf16	3.20348851416919
130	0x3fd4734f25cc8b30	0.31953791323955993
131	0x3ff98a7352158da5	1.596301384583833
132	0xbfd655a36ba16290	-0.3489769507482743
133	0x3fbe2c5831e2bdfc	0.11786414354241254
134	0x3f809449ae9018ae	0.00809533657048819
135	0x3fc08ab0bfdc4e69	0.12923249595825162
136	0x3faad98893b7210d	0.05244089892545576
137	0xbf84fb1abedc2d28	-0.010244568776690402
138	0xbfb327ce83ce6223	-0.07482615201878011
139	0x3fb0c639c8d6ed31	0.06552468446073047
140	0x3ff4686287a23e7e	1.2754845903581606
141	0x400d1265b4b7f4e9	3.6339830511702655
142	0x3fee93686e29d21a	0.9554941321972052
143	0x4005f9de8d02b535	2.747006513257157
144	0xbfe67750c73367d6	-0.702064885200566
145	0x3fc1791e42883d78	0.1365087342132758
146	0xbfaf1018703656e8	-0.06066967363146408
147	0x3fa5ef80b1dc8db9	0.042842885696042506
148	0xbf91ca45e1283147	-0.017373172633641045
149	0x3f817c6c411922a4	0.008538099037779752
150	0xbfc3ccc533a37f54	-0.15468659421366715
151	0x3fb62feb311dfc09	0.08666868161343201
152	0x3fe70faf8c8953c2	0.7206647629596932
153	0x3ff1a74950c331a5	1.103341403463767
154	0xbfe0f8ce9125b976	-0.530371936312618
155	0x3faf5d1c1d9ce58c	0.06125724660382578
156	0xbfe3fe6d06f18f59	-0.624807847558695
157	0xbfcfd4ce6c81b339	-0.24868183420348958
158	0xbfbaadaedfb006a7	-0.10421269379733165
159	0xbfb98fa1852fe8c1	-0.0998478841937951
160	0xbfdd6b8cbca5c76b	-0.45968931601156865
161	0x3fc313ad72f1a448	0.14903801071639777
162	0xbfdc93444f466523	-0.44648845426270806
163	0x3fe1f6967f9627ae	0.5613510600971858
164	0x3fe3158800c3e208	0.5963783278412516
165	0x4035ce618f430acc	21.806176141612738
166	0xbfccf3fc01c02199	-0.22619581304048778
167	0xc021fce7fb0f89c9	-8.993957372328525
168	0xbfe7f4de806f8867	-0.7486412533292083
169	0x3fc7cbd8fc0ee92f	0.1859084349396851
170	0xbf8321407ec86e78	-0.009340766781910079
171	0x3fa78a359912f49f	0.045976328788563274
172	0x3f9e292f6fe941cb	0.0294539844565536
173	0x3fa8a73afc388d90	0.048150866783795654
174	0xbfbeae0824f54364	-0.119843014739002
175	0x3fa10a942bfe352a	0.03328383481048498
176	0x3ff57562e0162c9b	1.3411587479957123
177	0x400685a953702056	2.81526436983044
178	0xbfcd5b52145456fd	-0.2293493842377571
179	0x3ffb792b813c03e1	1.7170825050563894
180	0xbfe3fe6d06f18f59	-0.624807847558695
181	0xbfcfd4ce6c81b339	-0.24868183420348958
182	0xbfbaadaedfb006a7	-0.10421269379733165
183	0xbfb98fa1852fe8c1	-0.0998478841937951
184	0xbfdd6b8cbca5c76b	-0.45968931601156865
185	0x3fc313ad72f1a448	0.14903801071639777
186	0xbfdc93444f466523	-0.44648845426270806
187	0x3fe1f6967f9627ae	0.5613510600971858
188	0x3fe3158800c3e208	0.5963783278412516
189	0x4035ce618f430acc	21.806176141612738
190	0xbfccf3fc01c02199	-0.22619581304048778
191	0xc021fce7fb0f89c9	-8.993957372328525
192	0xbfdcfe0088ad8ddc	-0.4530030569787564
193	0x3fc6c43e25d65ee9	0.1778638539078579
194	0xbf9ab24f2ba103e9	-0.026070820844555618
195	0x3fbb31e9cad086a5	0.10623036576773844
196	0xbf99fa09ebfaddd6	-0.025367884662697758
197	0xbfa17074ae023e9b	-0.034061094514183675
198	0xbfc4d87b1e26f42e	-0.16285647365830996
199	0x3fa1279bd1ef07e8	0.033505315186189766
200	0x3ff312123c0bb274	1.1919119210753282
201	0x400633ad2220cb15	2.775232569337627
202	0x3fcd410598eb8b7d	0.22854680983354206
203	0x400ab6519162c0c5	3.339022765947535
204	0xbfe3fe6d06f18f59	-0.624807847558695
205	0xbfcfd4ce6c81b339	-0.24868183420348958
206	0xbfbaadaedfb006a7	-0.10421269379733165
207	0xbfb98fa1852fe8c1	-0.0998478841937951
208	0xbfdd6b8cbca5c76b	-0.45968931601156865
209	0x3fc313ad72f1a448	0.14903801071639777
210	0xbfdc93444f466523	-0.44648845426270806
211	0x3fe1f6967f9627ae	0.5613510600971858
212	0x3fe3158800c3e208	0.5963783278412516
213	0x4035ce618f430acc	21.806176141612738
214	0xbfccf3fc01c02199	-0.22619581304048778
215	0xc021fce7fb0f89c9	-8.993957372328525
216	0xbfd77f6713193e48	-0.3671510397443609
217	0x3fb72cd55ba44b05	0.09052785384509938
218	0xbf74387037e7d004	-0.004936636307764534
219	0x3fba87b17f7993b6	0.10363301622562812
220	0x3fa9a01a248e3cf0	0.050049607241016036
221	0x3fb816464c0f45c3	0.09408988339352846
222	0xbfc475a3d1171cbd	-0.15984008512007178
223	0x3f9123ba5b097301	0.01673785381932458
224	0x3ff0d6017a541faf	1.0522475031338947
225	0x4004cdaf22b33dfd	2.6004317007971154
226	0x3feeb58a2f531909	0.9596606182392701
227	0x400e0a9dc42dfba3	3.7551837278874287
228	0xbfd3917ba4200bc9	-0.30575457599496453
229	0x3fbdafea4ceaff7f	0.11596550348167332
230	0xbf9ef73c084bcd96	-0.030239999777177916
231	0x3fa702ddc68240a0	0.044943743211775855
232	0xbfa56effa13f81da	-0.04186247676239292
233	0xbf925b51c7594784	-0.017926481048852874
234	0xbfca4c3d15643b52	-0.20545161766537007
235	0x3fa0b97cb7f8f35f	0.032665154893470875
236	0x3ff34e5d910f9433	1.206632200855222
237	0x4003f2101a8f6492	2.493194777966502
238	0x3fe59a8c9dfc6e97	0.6751158795991213
239	0x4012e2817fb0b7da	4.721197123681089
240	0xbfde9cc3dc8dc228	-0.47831818140460536
241	0x3fc860ccd109911c	0.19045410353567938
242	0xbf7b3cf079b5dbcc	-0.006649913174775212
243	0x3fb5edb4d5432b3d	0.08565836149788893
244	0xbf909638853e5a4a	-0.016198046810666868
245	0xbfb079b022fc991f	-0.06435681204002151
246	0xbfc55dbc70a57bdd	-0.16692309856713808
247	0x3fac7d0ffbefbfe9	0.05564165068051336
248	0x3ff3fd3efc26df2a	1.2493276452714306
249	0x400a051e3d801b88	3.252499084922821
250	0x3fdaa55f7b7b0bc1	0.41634356554657975
251	0x400623bc36ca2c5b	2.7674488335083374
252	0xbfcef59cf17f1b95	-0.2418705157453728
253	0x3fb1a2e3123bf9bb	0.06889170832798801
254	0xbfa1849cf3ad584d	-0.03421488260816883
255	0x3fa1acd15d6aff8b	0.03452162042003611
