3_Mapping_&_Model_Explanation/ERP_automl_model_HIAmax_shap.npy (npy, 537728 bytes, 1 tensors)

array f8 [5600, 12]
0	0x400b0a00681f391f	3.3798835882690947
1	0x3ffd4ff0c80a610d	1.832016736420033
2	0x3f9532e007f7e8d8	0.020701885687210403
3	0xbfd22855f3faa0a0	-0.2837118990523866
4	0xbfd207786d45c270	-0.2817059580911865
5	0x400475c6bf48a27a	2.557507986454138
6	0x3fecc6e130eccd84	0.89927730136553
7	0x400ac3e0c640370a	3.3456435669276106
8	0xc00d9ca9b7a75954	-3.7014955852456897
9	0x404027b672265275	32.310255306922876
10	0xbfd1712625d88314	-0.2725310678088573
11	0x4017ef325081124b	5.983590371969124
12	0x400b0a00681f391f	3.3798835882690947
13	0x3ffd4ff0c80a610d	1.832016736420033
14	0x3f9532e007f7e8d8	0.020701885687210403
15	0xbfd22855f3faa0a0	-0.2837118990523866
16	0xbfd207786d45c270	-0.2817059580911865
17	0x400475c6bf48a27a	2.557507986454138
18	0x3fecc6e130eccd84	0.89927730136553
19	0x400ac3e0c640370a	3.3456435669276106
20	0xc00d9ca9b7a75954	-3.7014955852456897
21	0x404027b672265275	32.310255306922876
22	0xbfd1712625d88314	-0.2725310678088573
23	0x4017ef325081124b	5.983590371969124
24	0x400b0a00681f391f	3.3798835882690947
25	0x3ffd4ff0c80a610d	1.832016736420033
26	0x3f9532e007f7e8d8	0.020701885687210403
27	0xbfd22855f3faa0a0	-0.2837118990523866
28	0xbfd207786d45c270	-0.2817059580911865
29	0x400475c6bf48a27a	2.557507986454138
30	0x3fecc6e130eccd84	0.89927730136553
31	0x400ac3e0c640370a	3.3456435669276106
32	0xc00d9ca9b7a75954	-3.7014955852456897
33	0x404027b672265275	32.310255306922876
34	0xbfd1712625d88314	-0.2725310678088573
35	0x4017ef325081124b	5.983590371969124
36	0x400b0a00681f391f	3.3798835882690947
37	0x3ffd4ff0c80a610d	1.832016736420033
38	0x3f9532e007f7e8d8	0.020701885687210403
39	0xbfd22855f3faa0a0	-0.2837118990523866
40	0xbfd207786d45c270	-0.2817059580911865
41	0x400475c6bf48a27a	2.557507986454138
42	0x3fecc6e130eccd84	0.89927730136553
43	0x400ac3e0c640370a	3.3456435669276106
44	0xc00d9ca9b7a75954	-3.7014955852456897
45	0x404027b672265275	32.310255306922876
46	0xbfd1712625d88314	-0.2725310678088573
47	0x4017ef325081124b	5.983590371969124
48	0x400b0a00681f391f	3.3798835882690947
49	0x3ffd4ff0c80a610d	1.832016736420033
50	0x3f9532e007f7e8d8	0.020701885687210403
51	0xbfd22855f3faa0a0	-0.2837118990523866
52	0xbfd207786d45c270	-0.2817059580911865
53	0x400475c6bf48a27a	2.557507986454138
54	0x3fecc6e130eccd84	0.89927730136553
55	0x400ac3e0c640370a	3.3456435669276106
56	0xc00d9ca9b7a75954	-3.7014955852456897
57	0x404027b672265275	32.310255306922876
58	0xbfd1712625d88314	-0.2725310678088573
59	0x4017ef325081124b	5.983590371969124
60	0x400b0a00681f391f	3.3798835882690947
61	0x3ffd4ff0c80a610d	1.832016736420033
62	0x3f9532e007f7e8d8	0.020701885687210403
63	0xbfd22855f3faa0a0	-0.2837118990523866
64	0xbfd207786d45c270	-0.2817059580911865
65	0x400475c6bf48a27a	2.557507986454138
66	0x3fecc6e130eccd84	0.89927730136553
67	0x400ac3e0c640370a	3.3456435669276106
68	0xc00d9ca9b7a75954	-3.7014955852456897
69	0x404027b672265275	32.310255306922876
70	0xbfd1712625d88314	-0.2725310678088573
71	0x4017ef325081124b	5.983590371969124
72	0x3fe08af8a2256611	0.5169642607608599
73	0xbf9ee5d206452ace	-0.0301735702826516
74	0xbf71cdbb083fd7ec	-0.004346590609193495
75	0xbf80fa8dcfeabd2d	-0.008290393741246927
76	0xbf79727c3b8578ee	-0.006212697299217347
77	0xbf857c5056e5b802	-0.010491016055961925
78	0x3fd1cad40f2863a7	0.27800466041804345
79	0xbf9d0638982948ce	-0.02834404400557205
80	0x3fda5f9c7d28e454	0.41208564970617556
81	0xbfd08de048ad5b5a	-0.25865943047886264
82	0xbfe8f5692fafca30	-0.7799573832874724
83	0xbfe11f7333b92190	-0.535089112302602
84	0x400b0a00681f391f	3.3798835882690947
85	0x3ffd4ff0c80a610d	1.832016736420033
86	0x3f9532e007f7e8d8	0.020701885687210403
87	0xbfd22855f3faa0a0	-0.2837118990523866
88	0xbfd207786d45c270	-0.2817059580911865
89	0x400475c6bf48a27a	2.557507986454138
90	0x3fecc6e130eccd84	0.89927730136553
91	0x400ac3e0c640370a	3.3456435669276106
92	0xc00d9ca9b7a75954	-3.7014955852456897
93	0x404027b672265275	32.310255306922876
94	0xbfd1712625d88314	-0.2725310678088573
95	0x4017ef325081124b	5.983590371969124
96	0x3fe4eca10023dd6b	0.6538853647934223
97	0xbfa4cd423c64a9e9	-0.040628499862879704
98	0x3f98acfaa15eb99e	0.024097362612957356
99	0xbf97235bdff0c6f1	-0.022595820945020276
100	0x3f755451e867b828	0.0052073668980323964
101	0xbf93b550eecc2bcb	-0.019246353697820056
102	0x3fd3299552f7a293	0.29941304304387834
103	0xbf9e8de4726f1b04	-0.02983815144014114
104	0x3fe14a1348a0f88a	0.5402923983126737
105	0xbfd75568fefe935b	-0.3645880212955512
106	0xbfe3c1fd5f4dc699	-0.6174303876307078
107	0xbfcc3a6e1d8b71cf	-0.2205331463109261
108	0x3fe6b20c392700d9	0.7092343441254584
109	0xbfa200c28933e218	-0.03516204762303604
110	0x3f94915b6103a4be	0.020085742756155815
111	0xbf908b41cd7cba57	-0.0161562234563298
112	0x3f7a7e0684ee5064	0.006467843500008372
113	0xbf68547009c43e71	-0.0029699505086069823
114	0x3fd22ce7881b5c5c	0.28399074832618054
115	0xbf8e1fd5205756a1	-0.014709153222536133
116	0x3fda147120ddeb24	0.40749767503409573
117	0xbfd6df2e487073f3	-0.3573718745627154
118	0xbfdf080af8df438d	-0.48486589721601875
119	0xbfb77707fe275c80	-0.09166002230573334
120	0x3fe6c8ce38588d5b	0.71201239590702
121	0xbfa19c9030796f96	-0.03439760772445692
122	0x3f8fe3233f6314f4	0.01556994950477495
123	0xbf8b1bd45d2deef8	-0.013236674398050749
124	0x3f70714512d49bc9	0.00401427251680437
125	0xbf62b13d6822aacb	-0.002281780181040948
126	0x3fd260e11d40ad42	0.2871630464239453
127	0xbf85069086ed2cf2	-0.010266427152279854
128	0x3fd925df29ff0304	0.39293650723634266
129	0xbfd6fcb639b9fb0b	-0.35917430531837685
130	0xbfe056a79bbea082	-0.5105779687774119
131	0xbfcbaf26758c4930	-0.2162826608624271
132	0x3fe094013d135f56	0.5180669968494651
133	0xbfa6af6c83bfd8a8	-0.04430712803143538
134	0x3f8ade2a85ff76e8	0.013119060720721845
135	0xbf68e83b40c3a67c	-0.0030404240879889338
136	0xbf606cc5fb7f8b7e	-0.002004992184070741
137	0xbfaa0cfa08e7c15c	-0.05088025435168461
138	0x3fcd64236e404fdd	0.22961848147735867
139	0xbfa11b1f8faa9a92	-0.03341005924931041
140	0x3fd10580297ba668	0.2659607319934367
141	0xbfd85041f7167dc3	-0.37989853982614025
142	0xbfe417811cdeabd5	-0.6278691829551187
143	0xbfd2ce472eb5a959	-0.2938402134083354
144	0x3fe6330d97a5aaf2	0.6937320672853657
145	0xbfad16be71085209	-0.05681414727965623
146	0x3f918496f28e8da7	0.017107351831908393
147	0xbf7d1dd8fc9b085f	-0.007108543018775475
148	0xbf6b4baa7c0de0d3	-0.0033319787766537905
149	0xbf657e6be1109ad0	-0.0026237589850269596
150	0x3fd987e60bd9a1b4	0.398919593403231
151	0xbf9a99f1ed0e3315	-0.02597787865993258
152	0x3fc9e5f293229a6b	0.20232994255384837
153	0x3fd638356911bfd4	0.3471807027881344
154	0xbfe1890fb10398bc	-0.5479811150842333
155	0xbfa874f5c2f4a626	-0.04776733403043591
156	0x400b0a00681f391f	3.3798835882690947
157	0x3ffd4ff0c80a610d	1.832016736420033
158	0x3f9532e007f7e8d8	0.020701885687210403
159	0xbfd22855f3faa0a0	-0.2837118990523866
160	0xbfd207786d45c270	-0.2817059580911865
161	0x400475c6bf48a27a	2.557507986454138
162	0x3fecc6e130eccd84	0.89927730136553
163	0x400ac3e0c640370a	3.3456435669276106
164	0xc00d9ca9b7a75954	-3.7014955852456897
165	0x404027b672265275	32.310255306922876
166	0xbfd1712625d88314	-0.2725310678088573
167	0x4017ef325081124b	5.983590371969124
168	0x3feaa425a0e42342	0.8325374739079978
169	0xbfabb61eb090eacf	-0.054123839429356495
170	0x3f8ecc958912c704	0.015038650746962208
171	0xbf883a0f67845fdf	-0.011829490992155854
172	0x3f60d24dd0e0c8a9	0.0020534057466870714
173	0x3f56241619a51fa0	0.0013513770887403145
174	0x3fd45a12e9d873f5	0.317997673382535
175	0xbf90cfd1c4bae632	-0.016417768127871386
176	0x3fd3b711f82207ec	0.3080487178013971
177	0xbfb0c3a4bea56a15	-0.06548528341719646
178	0xbfd3a69b42ff0b73	-0.30704385321239797
179	0xbfc784b8da3af458	-0.18373785644317553
180	0x400b0a00681f391f	3.3798835882690947
181	0x3ffd4ff0c80a610d	1.832016736420033
182	0x3f9532e007f7e8d8	0.020701885687210403
183	0xbfd22855f3faa0a0	-0.2837118990523866
184	0xbfd207786d45c270	-0.2817059580911865
185	0x400475c6bf48a27a	2.557507986454138
186	0x3fecc6e130eccd84	0.89927730136553
187	0x400ac3e0c640370a	3.3456435669276106
188	0xc00d9ca9b7a75954	-3.7014955852456897
189	0x404027b672265275	32.310255306922876
190	0xbfd1712625d88314	-0.2725310678088573
191	0x4017ef325081124b	5.983590371969124
192	0x3fe880b3a04bf933	0.7657106524273217
193	0xbfa75c31fdbe7bfd	-0.04562526915037066
194	0x3f8a55b305a25701	0.01285877095169097
195	0xbf68f8492a072d91	-0.0030480793941244995
196	0x3f76ee52f2c92452	0.0055983772441062386
197	0xbf5e499025a086ab	-0.0018485934911115869
198	0x3fcddbd6bb11acf4	0.23327144750815132
199	0xbf86e0b8569ea628	-0.011170807021545562
200	0x3fd766f3ffef2995	0.36565876000954606
201	0xbfdad06bcc0cfeb3	-0.41897101332504433
202	0xbfd7cc5fe513ccf7	-0.37184903498491856
203	0xbfdcb5bb1273572b	-0.44859196473895463
204	0x400b0a00681f391f	3.3798835882690947
205	0x3ffd4ff0c80a610d	1.832016736420033
206	0x3f9532e007f7e8d8	0.020701885687210403
207	0xbfd22855f3faa0a0	-0.2837118990523866
208	0xbfd207786d45c270	-0.2817059580911865
209	0x400475c6bf48a27a	2.557507986454138
210	0x3fecc6e130eccd84	0.89927730136553
211	0x400ac3e0c640370a	3.3456435669276106
212	0xc00d9ca9b7a75954	-3.7014955852456897
213	0x404027b672265275	32.310255306922876
214	0xbfd1712625d88314	-0.2725310678088573
215	0x4017ef325081124b	5.983590371969124
216	0x3fe10ef2e3a36ac3	0.5330748029767495
217	0xbfa2ee09c167719f	-0.03697233663453691
218	0x3f94c8c39e2ecd0f	0.020297104387009542
219	0xbf926327b07756c5	-0.01795637144626629
220	0x3f870d7f6fbb5913	0.011256213757786548
221	0xbfa4e858d43b78ef	-0.04083516684271326
222	0x3fce31453a5e93cd	0.23587861394949386
223	0xbf55bde3e7b6c417	-0.0013270116458949982
224	0x3fdd59ed6faa169c	0.45861373810508055
225	0xbfd8d18339c5a67f	-0.38778763429454693
226	0xbfe7a36c07837ac4	-0.7386989733457416
227	0xbfe04052ef4e9143	-0.5078520463908166
228	0x3fe4c73290f8b8d2	0.649316104076002
229	0xbfa473b492bdbb40	-0.039945261872040394
230	0x3f861a504e51f69c	0.010792376890317805
231	0x3f73c7f05168efe0	0.004829348318306587
232	0xbf6ef046277f9911	-0.003776680965518094
233	0xbf841e07cdae3025	-0.009822903599136687
234	0x3fd0dc955af0ac26	0.26346334343787914
235	0xbfa018a98cf0e7a1	-0.031438158468929396
236	0x3fd5948e86d1319f	0.33719218412150015
237	0xbfd4f13b544a60d0	-0.3272236178540995
238	0xbfe26da94b34724d	-0.5758863896222209
239	0xbfe2d5ba5a35a91a	-0.5885898363024211
240	0x3fe683da3f85357f	0.7035952797538555
241	0xbfa4649347899f44	-0.03982982872258714
242	0x3f91f042d2432546	0.017518085559264727
243	0xbf44322ea56cef28	-0.0006163337483040309
244	0xbf35cd8684fa7327	-0.0003326848427407818
245	0xbf9a896fbb6041cf	-0.025914903461002056
246	0x3fcceb144c78731a	0.22592405065452043
247	0xbf84d9bf9c0be9c8	-0.010180947255766251
248	0x3fd5ee7ca6f398e0	0.3426810865770573
249	0xbfdec06a552a9735	-0.4804941016867475
250	0xbfd6f6e8754cb8f8	-0.35882007079170775
251	0xbfd60d8f9aa03e71	-0.34457769489470197
252	0x3fe30bd51c7dbfd2	0.595194392821208
253	0xbf945f2fecb2c2fe	-0.019894360372464163
254	0x3f75667e1ca52342	0.005224697708691663
255	0x3f52a7d8eaea67b1	0.0011386507355042148
