3_Mapping_&_Model_Explanation/ERP_automl_model_TSAmax_shap.npy (npy, 537728 bytes, 1 tensors)

array f8 [5600, 12]
000000 85 d1 0e 10 fc da ff 3f 74 17 24 18 40 98 ce 3f
       1.9909630419980158 0.2390213125110524
000010 a4 a2 4c 54 51 dd b1 3f 15 7f 9f 29 76 38 b3 bf
       0.06978328998651279 -0.07508028522670103
000020 0e ea 9e fb 37 fb 9d bf 51 9a e3 f8 93 5a d7 3f
       -0.02927863572379335 0.3649034433896406
000030 eb 79 34 fc 0e b4 d9 3f 34 a7 4f 08 ee 4a d3 3f
       0.4016149008693037 0.3014483529246832
000040 3d e9 99 dd 75 31 af bf f4 b8 fc 92 d2 15 24 40
       -0.06092422800152739 10.0426221784114
000050 7c 1d b4 d2 15 03 f9 bf 37 8c 77 ec 86 16 0e 40
       -1.563253233967628 3.760999534033114
000060 85 d1 0e 10 fc da ff 3f 74 17 24 18 40 98 ce 3f
       1.9909630419980158 0.2390213125110524
000070 a4 a2 4c 54 51 dd b1 3f 15 7f 9f 29 76 38 b3 bf
       0.06978328998651279 -0.07508028522670103
000080 0e ea 9e fb 37 fb 9d bf 51 9a e3 f8 93 5a d7 3f
       -0.02927863572379335 0.3649034433896406
000090 eb 79 34 fc 0e b4 d9 3f 34 a7 4f 08 ee 4a d3 3f
       0.4016149008693037 0.3014483529246832
0000a0 3d e9 99 dd 75 31 af bf f4 b8 fc 92 d2 15 24 40
       -0.06092422800152739 10.0426221784114
0000b0 7c 1d b4 d2 15 03 f9 bf 37 8c 77 ec 86 16 0e 40
       -1.563253233967628 3.760999534033114
0000c0 85 d1 0e 10 fc da ff 3f 74 17 24 18 40 98 ce 3f
       1.9909630419980158 0.2390213125110524
0000d0 a4 a2 4c 54 51 dd b1 3f 15 7f 9f 29 76 38 b3 bf
       0.06978328998651279 -0.07508028522670103
0000e0 0e ea 9e fb 37 fb 9d bf 51 9a e3 f8 93 5a d7 3f
       -0.02927863572379335 0.3649034433896406
0000f0 eb 79 34 fc 0e b4 d9 3f 34 a7 4f 08 ee 4a d3 3f
       0.4016149008693037 0.3014483529246832
000100 3d e9 99 dd 75 31 af bf f4 b8 fc 92 d2 15 24 40
       -0.06092422800152739 10.0426221784114
000110 7c 1d b4 d2 15 03 f9 bf 37 8c 77 ec 86 16 0e 40
       -1.563253233967628 3.760999534033114
000120 85 d1 0e 10 fc da ff 3f 74 17 24 18 40 98 ce 3f
       1.9909630419980158 0.2390213125110524
000130 a4 a2 4c 54 51 dd b1 3f 15 7f 9f 29 76 38 b3 bf
       0.06978328998651279 -0.07508028522670103
000140 0e ea 9e fb 37 fb 9d bf 51 9a e3 f8 93 5a d7 3f
       -0.02927863572379335 0.3649034433896406
000150 eb 79 34 fc 0e b4 d9 3f 34 a7 4f 08 ee 4a d3 3f
       0.4016149008693037 0.3014483529246832
000160 3d e9 99 dd 75 31 af bf f4 b8 fc 92 d2 15 24 40
       -0.06092422800152739 10.0426221784114
000170 7c 1d b4 d2 15 03 f9 bf 37 8c 77 ec 86 16 0e 40
       -1.563253233967628 3.760999534033114
000180 85 d1 0e 10 fc da ff 3f 74 17 24 18 40 98 ce 3f
       1.9909630419980158 0.2390213125110524
000190 a4 a2 4c 54 51 dd b1 3f 15 7f 9f 29 76 38 b3 bf
       0.06978328998651279 -0.07508028522670103
0001a0 0e ea 9e fb 37 fb 9d bf 51 9a e3 f8 93 5a d7 3f
       -0.02927863572379335 0.3649034433896406
0001b0 eb 79 34 fc 0e b4 d9 3f 34 a7 4f 08 ee 4a d3 3f
       0.4016149008693037 0.3014483529246832
0001c0 3d e9 99 dd 75 31 af bf f4 b8 fc 92 d2 15 24 40
       -0.06092422800152739 10.0426221784114
0001d0 7c 1d b4 d2 15 03 f9 bf 37 8c 77 ec 86 16 0e 40
       -1.563253233967628 3.760999534033114
0001e0 85 d1 0e 10 fc da ff 3f 74 17 24 18 40 98 ce 3f
       1.9909630419980158 0.2390213125110524
0001f0 a4 a2 4c 54 51 dd b1 3f 15 7f 9f 29 76 38 b3 bf
       0.06978328998651279 -0.07508028522670103
000200 0e ea 9e fb 37 fb 9d bf 51 9a e3 f8 93 5a d7 3f
       -0.02927863572379335 0.3649034433896406
000210 eb 79 34 fc 0e b4 d9 3f 34 a7 4f 08 ee 4a d3 3f
       0.4016149008693037 0.3014483529246832
000220 3d e9 99 dd 75 31 af bf f4 b8 fc 92 d2 15 24 40
       -0.06092422800152739 10.0426221784114
000230 7c 1d b4 d2 15 03 f9 bf 37 8c 77 ec 86 16 0e 40
       -1.563253233967628 3.760999534033114
000240 82 76 ff fa f1 ce e0 3f 54 aa 91 62 51 de a0 bf
       0.5252618696501516 -0.03294615104899337
000250 fd ce 05 a8 35 3b 76 bf c9 80 6b 8f 25 b5 80 bf
       -0.005427560420105723 -0.008158009948090588
000260 78 ac b3 c5 82 50 4e 3f 30 56 25 d9 71 dc 78 bf
       0.0009251249824989835 -0.00606960746730105
000270 66 c1 88 96 b0 68 db 3f 25 35 8d b9 89 69 9f bf
       0.42826475811582154 -0.03067603297249834
000280 cb 5d df 71 46 cb c2 3f 72 cb b4 2c c7 be ca 3f
       0.1468284660356701 0.2089470833103309
000290 95 38 5e b4 bc 73 f5 bf 8b 9d d7 55 88 67 ef bf
       -1.3407561345698344 -0.9813882519346618
0002a0 85 d1 0e 10 fc da ff 3f 74 17 24 18 40 98 ce 3f
       1.9909630419980158 0.2390213125110524
0002b0 a4 a2 4c 54 51 dd b1 3f 15 7f 9f 29 76 38 b3 bf
       0.06978328998651279 -0.07508028522670103
0002c0 0e ea 9e fb 37 fb 9d bf 51 9a e3 f8 93 5a d7 3f
       -0.02927863572379335 0.3649034433896406
0002d0 eb 79 34 fc 0e b4 d9 3f 34 a7 4f 08 ee 4a d3 3f
       0.4016149008693037 0.3014483529246832
0002e0 3d e9 99 dd 75 31 af bf f4 b8 fc 92 d2 15 24 40
       -0.06092422800152739 10.0426221784114
0002f0 7c 1d b4 d2 15 03 f9 bf 37 8c 77 ec 86 16 0e 40
       -1.563253233967628 3.760999534033114
000300 16 44 5a c6 59 7a e6 3f 0c 40 b3 c2 a3 f2 aa bf
       0.7024353860925909 -0.052632443921197675
000310 98 5e 00 74 26 81 a4 3f 1d 3f 3a ec 4c 17 91 bf
       0.04004783788712735 -0.016690446775611812
000320 4d 91 58 a1 dc c5 66 3f 3e da 84 e9 da 2e 82 bf
       0.0027798947510452644 -0.008878431559975582
000330 4e 08 d5 58 d9 12 d6 3f 99 59 24 b3 6e cf 96 bf
       0.3449004523755591 -0.022275666889152033
000340 ea d6 ff 21 54 08 d1 3f 1d 29 21 91 9f ca b2 3f
       0.2661333400750282 0.073404286319747
000350 e1 6b 93 da f3 4c ea bf 9b 5e b4 09 9e 10 d3 bf
       -0.8218936223087178 -0.29788924167358183
000360 7a 8c c6 6f 40 68 e7 3f 58 80 98 3b 95 66 a9 bf
       0.7314760382763688 -0.049610770726076836
000370 93 d5 5d c3 9b 4b a1 3f 99 80 c9 ca 0f 6e 8c bf
       0.03377997169347249 -0.013881801010200244
000380 40 fb 59 1e 47 b0 52 3f 1d 42 9a 3f 8c 5c 6d bf
       0.0011406607167427502 -0.003584169314145193
000390 a7 d9 66 53 c1 98 d4 3f ad ff db 10 24 18 99 bf
       0.32182343620970716 -0.024506152657522474
0003a0 80 28 a7 f6 69 fc cf 3f 79 f9 82 bc d6 a6 a8 3f
       0.2498905615196385 0.04814787913481928
0003b0 cb 4e cf f6 02 cb e3 bf e1 44 bb 23 2a 94 b2 bf
       -0.6185316868308858 -0.07257331249572331
0003c0 75 2e 67 87 30 06 e8 3f 33 3a 88 0f 69 22 a9 bf
       0.7507555622664329 -0.04909065546609206
0003d0 9e c0 a2 22 7f f7 95 3f 38 99 3d e8 17 11 8b bf
       0.02145193718814708 -0.013216196799203148
0003e0 78 32 71 8e a9 b1 52 3f 6e d3 e6 f2 ac 1b 7d bf
       0.0011409908127177053 -0.007106471616158723
0003f0 25 ea f1 54 36 fd d5 3f 96 42 a8 a7 e7 9a 99 bf
       0.34357984824569804 -0.02500497780607932
000400 0c e6 84 7f 5f 15 cf 3f 21 02 bf f5 2b 1f ae 3f
       0.242839753403857 0.058831571338945794
000410 6f ef d1 7a 23 c4 e4 bf bb 45 fb bc dd 24 cd bf
       -0.6489426993207256 -0.22768756606687454
000420 81 a9 b4 69 16 06 e3 3f 82 89 80 35 25 39 aa bf
       0.5944931091847111 -0.051217234402673575
000430 aa 1f 56 f5 44 db 99 3f 14 17 ad fe af f0 8e bf
       0.02525050876059224 -0.01510751243553047
000440 d5 34 6b a2 bc 22 51 3f 24 fd ed 64 27 80 73 bf
       0.0010458795674595418 -0.004760888942541262
000450 93 f7 44 ae ab fa d2 3f 62 0a ed 06 e2 84 98 bf
       0.29654972094055515 -0.023944408104635058
000460 48 b3 10 cf 20 fa bf 3f c7 45 e8 3b ee 95 bd 3f
       0.1249104028253899 0.11556900942402769
000470 1d b5 e3 62 e9 9e eb bf 24 d9 60 43 11 35 da bf
       -0.8631483966288759 -0.40948897914803895
000480 a1 b0 71 b9 bb fe e6 3f 5e de 3c f8 0b 17 b1 bf
       0.7185953733401399 -0.06675791559688934
000490 d0 8d 39 90 43 08 8d 3f 06 4c 0e 5a 1b 3d 80 bf
       0.014175918425457207 -0.007929052053247797
0004a0 df 81 8a 27 9c 33 50 bf 67 2a a7 31 27 28 70 bf
       -0.0009888672777053004 -0.003944542981524002
0004b0 2a 64 b4 d8 c7 f2 dd 3f a4 40 09 97 a0 31 9c bf
       0.46794315493167693 -0.027533063143267214
0004c0 66 7d 90 00 77 77 c2 3f 8b da 92 12 23 e2 e2 3f
       0.14427077796515703 0.590104614521651
0004d0 10 2b 8b 03 dc 57 e6 bf 12 f8 70 55 9b 67 96 3f
       -0.6982250279628222 0.02187960347168178
0004e0 85 d1 0e 10 fc da ff 3f 74 17 24 18 40 98 ce 3f
       1.9909630419980158 0.2390213125110524
0004f0 a4 a2 4c 54 51 dd b1 3f 15 7f 9f 29 76 38 b3 bf
       0.06978328998651279 -0.07508028522670103
000500 0e ea 9e fb 37 fb 9d bf 51 9a e3 f8 93 5a d7 3f
       -0.02927863572379335 0.3649034433896406
000510 eb 79 34 fc 0e b4 d9 3f 34 a7 4f 08 ee 4a d3 3f
       0.4016149008693037 0.3014483529246832
000520 3d e9 99 dd 75 31 af bf f4 b8 fc 92 d2 15 24 40
       -0.06092422800152739 10.0426221784114
000530 7c 1d b4 d2 15 03 f9 bf 37 8c 77 ec 86 16 0e 40
       -1.563253233967628 3.760999534033114
000540 67 d2 d6 e6 4a b8 eb 3f bf 78 cb 37 e1 2f b0 bf
       0.8662466534211263 -0.06323058712175376
000550 f9 c6 ae 8b 88 a9 94 3f 28 c3 01 28 8b a1 8a bf
       0.020177968526417598 -0.013003432424939357
000560 35 6c ab a3 fe 3b 4b bf 0c 19 19 c1 32 63 73 bf
       -0.0008311265331387765 -0.004733274706785428
000570 54 17 4c 4e 0d 01 da 3f 27 ec 4e 49 69 0e 99 bf
       0.40631420751775704 -0.024469037150748243
000580 1c 9c 1e c7 7e c4 cb 3f 91 95 18 c6 5b a7 d1 3f
       0.21693405840525848 0.275839751675755
000590 88 22 47 e6 09 81 da bf 08 e9 f7 46 97 b2 c8 bf
       -0.4141258953864413 -0.19295016255620845
0005a0 85 d1 0e 10 fc da ff 3f 74 17 24 18 40 98 ce 3f
       1.9909630419980158 0.2390213125110524
0005b0 a4 a2 4c 54 51 dd b1 3f 15 7f 9f 29 76 38 b3 bf
       0.06978328998651279 -0.07508028522670103
0005c0 0e ea 9e fb 37 fb 9d bf 51 9a e3 f8 93 5a d7 3f
       -0.02927863572379335 0.3649034433896406
0005d0 eb 79 34 fc 0e b4 d9 3f 34 a7 4f 08 ee 4a d3 3f
       0.4016149008693037 0.3014483529246832
0005e0 3d e9 99 dd 75 31 af bf f4 b8 fc 92 d2 15 24 40
       -0.06092422800152739 10.0426221784114
0005f0 7c 1d b4 d2 15 03 f9 bf 37 8c 77 ec 86 16 0e 40
       -1.563253233967628 3.760999534033114
000600 9c d2 f9 17 83 b3 ea 3f 1d bc 5c 23 a3 d3 ae bf
       0.8344130962637624 -0.06020841414135012
000610 ac 3f 0b c8 1b 20 82 3f ad 27 ae 1a ca 55 7a bf
       0.00885030464397104 -0.006429471463784181
000620 60 22 5d de b2 20 57 3f 62 a6 40 ac d3 1b 6a bf
       0.0014116045726543444 -0.0031870969997001434
000630 a4 01 dc 06 7b bf d4 3f 99 a3 75 44 c8 9a 93 bf
       0.3241870467172936 -0.019145135096013986
000640 70 ae ed a3 12 10 c8 3f 44 64 76 98 10 9b 96 bf
       0.1879905033523417 -0.022075900369234583
000650 b1 38 38 00 e5 f7 da bf ae 9b 83 fe 69 f5 e3 bf
       -0.4213802816528967 -0.6237077685335544
000660 85 d1 0e 10 fc da ff 3f 74 17 24 18 40 98 ce 3f
       1.9909630419980158 0.2390213125110524
000670 a4 a2 4c 54 51 dd b1 3f 15 7f 9f 29 76 38 b3 bf
       0.06978328998651279 -0.07508028522670103
000680 0e ea 9e fb 37 fb 9d bf 51 9a e3 f8 93 5a d7 3f
       -0.02927863572379335 0.3649034433896406
000690 eb 79 34 fc 0e b4 d9 3f 34 a7 4f 08 ee 4a d3 3f
       0.4016149008693037 0.3014483529246832
0006a0 3d e9 99 dd 75 31 af bf f4 b8 fc 92 d2 15 24 40
       -0.06092422800152739 10.0426221784114
0006b0 7c 1d b4 d2 15 03 f9 bf 37 8c 77 ec 86 16 0e 40
       -1.563253233967628 3.760999534033114
0006c0 86 b4 12 72 d7 a4 e4 3f f4 4b 91 ad 0f a2 a7 bf
       0.6451222637166587 -0.04615830415482228
0006d0 de 48 a2 bd 64 92 99 3f 88 bb 08 4b 69 5b 89 bf
       0.024972509455047802 -0.012381384470328674
0006e0 5e 88 1c 85 1d 35 6c 3f 6f cb b9 a1 70 70 8a bf
       0.0034432961046074037 -0.012909774718740967
0006f0 5c 31 1a 48 19 97 d7 3f e3 94 41 f4 1a e2 96 bf
       0.3685973362087418 -0.02234689822980308
000700 b9 53 04 1d e8 1b c6 3f 26 ce f2 a1 83 56 b8 3f
       0.17272664467659896 0.09507010177440431
000710 74 00 25 55 23 27 f1 bf 60 cd b0 d4 f8 5a ec bf
       -1.0720551801641962 -0.8861049799074117
000720 ba 5a b6 87 cf 39 e7 3f 73 40 ef bd 4b df ad bf
       0.7258069658881461 -0.058344237265942754
000730 e5 2e 8f c1 ba 73 82 3f cb 90 70 d4 1c ae 80 bf
       0.009009799034081787 -0.008144593461175373
000740 a6 36 a2 1c 1d b1 01 bf 3c 07 e6 34 62 63 80 bf
       -3.374452678981997e-05 -0.008002059211097305
000750 44 d1 62 36 87 a6 d8 3f 34 aa 94 78 bb 55 9a bf
       0.3851640730965935 -0.02571766780344316
000760 07 e1 60 5b 7c 03 c0 3f 20 46 34 7e 76 ae c0 3f
       0.12510637723767834 0.1303241840583249
000770 e1 8a 22 07 0d aa eb bf bb 54 b5 54 f1 3c f0 bf
       -0.8645081652979024 -1.014878588573352
000780 68 a4 6a ec ec 84 e8 3f 62 81 04 72 b6 01 ac bf
       0.7662262551795154 -0.05470056669060132
000790 3f de 55 60 47 4a 95 3f 78 55 41 1d ea 60 84 bf
       0.020791163687560617 -0.009950474756048364
0007a0 ec f2 6e 6b 47 c2 60 bf fa c8 ab 19 74 9b 7b bf
       -0.002045764438177824 -0.006740048901280321
0007b0 ee d0 dd 2b ab 47 d2 3f 91 1d e6 e6 66 91 94 bf
       0.28562430652460946 -0.020085914462041613
0007c0 8d dd a1 6a 92 bc c3 3f f4 6c fb b2 61 83 aa bf
       0.15419225889830238 -0.051783612345127766
0007d0 5d f8 69 86 ed ed dd bf 80 b2 6b 58 f4 1b dd bf
       -0.4676469624172393 -0.4548312057002377
0007e0 6e 08 81 b2 f5 69 e6 3f c1 2a f2 31 6b c7 ac bf
       0.7004345404059344 -0.05620894417468981
0007f0 66 1c 64 f1 7a ce 81 3f b7 8d f6 b6 aa 24 80 bf
       0.008694611064596635 -0.007882436474409766
