3_Mapping_&_Model_Explanation/ERP_automl_model_TSAmean_shap.npy (npy, 537728 bytes, 1 tensors)

array f8 [5600, 12]
000000 f7 dc 74 e0 b5 ee f3 3f 3c 92 95 e0 f4 4e b0 3f
       1.245778919966879 0.06370478137029861
000010 d9 9f 10 b8 ca 2b bb 3f f9 a8 55 1d 6a 58 af 3f
       0.10613696092389037 0.06122142417992111
000020 1e b2 07 57 ea 8a 93 3f b7 72 ca 33 cd c4 bf 3f
       0.019084607660191925 0.12409670366691726
000030 27 e6 62 41 b8 22 d7 3f 17 e2 eb 90 32 c7 cc 3f
       0.3614941252268146 0.2248290259956469
000040 62 1b 00 3c f3 48 b2 3f 53 7a 4b b3 9f c2 0a 40
       0.07142563071111632 3.345031166783238
000050 11 f3 ce f6 a1 2d d2 bf 6d bb fc 6d 63 13 02 40
       -0.2840351972807165 2.2594669907334066
000060 f7 dc 74 e0 b5 ee f3 3f 3c 92 95 e0 f4 4e b0 3f
       1.245778919966879 0.06370478137029861
000070 d9 9f 10 b8 ca 2b bb 3f f9 a8 55 1d 6a 58 af 3f
       0.10613696092389037 0.06122142417992111
000080 1e b2 07 57 ea 8a 93 3f b7 72 ca 33 cd c4 bf 3f
       0.019084607660191925 0.12409670366691726
000090 27 e6 62 41 b8 22 d7 3f 17 e2 eb 90 32 c7 cc 3f
       0.3614941252268146 0.2248290259956469
0000a0 62 1b 00 3c f3 48 b2 3f 53 7a 4b b3 9f c2 0a 40
       0.07142563071111632 3.345031166783238
0000b0 11 f3 ce f6 a1 2d d2 bf 6d bb fc 6d 63 13 02 40
       -0.2840351972807165 2.2594669907334066
0000c0 f7 dc 74 e0 b5 ee f3 3f 3c 92 95 e0 f4 4e b0 3f
       1.245778919966879 0.06370478137029861
0000d0 d9 9f 10 b8 ca 2b bb 3f f9 a8 55 1d 6a 58 af 3f
       0.10613696092389037 0.06122142417992111
0000e0 1e b2 07 57 ea 8a 93 3f b7 72 ca 33 cd c4 bf 3f
       0.019084607660191925 0.12409670366691726
0000f0 27 e6 62 41 b8 22 d7 3f 17 e2 eb 90 32 c7 cc 3f
       0.3614941252268146 0.2248290259956469
000100 62 1b 00 3c f3 48 b2 3f 53 7a 4b b3 9f c2 0a 40
       0.07142563071111632 3.345031166783238
000110 11 f3 ce f6 a1 2d d2 bf 6d bb fc 6d 63 13 02 40
       -0.2840351972807165 2.2594669907334066
000120 f7 dc 74 e0 b5 ee f3 3f 3c 92 95 e0 f4 4e b0 3f
       1.245778919966879 0.06370478137029861
000130 d9 9f 10 b8 ca 2b bb 3f f9 a8 55 1d 6a 58 af 3f
       0.10613696092389037 0.06122142417992111
000140 1e b2 07 57 ea 8a 93 3f b7 72 ca 33 cd c4 bf 3f
       0.019084607660191925 0.12409670366691726
000150 27 e6 62 41 b8 22 d7 3f 17 e2 eb 90 32 c7 cc 3f
       0.3614941252268146 0.2248290259956469
000160 62 1b 00 3c f3 48 b2 3f 53 7a 4b b3 9f c2 0a 40
       0.07142563071111632 3.345031166783238
000170 11 f3 ce f6 a1 2d d2 bf 6d bb fc 6d 63 13 02 40
       -0.2840351972807165 2.2594669907334066
000180 f7 dc 74 e0 b5 ee f3 3f 3c 92 95 e0 f4 4e b0 3f
       1.245778919966879 0.06370478137029861
000190 d9 9f 10 b8 ca 2b bb 3f f9 a8 55 1d 6a 58 af 3f
       0.10613696092389037 0.06122142417992111
0001a0 1e b2 07 57 ea 8a 93 3f b7 72 ca 33 cd c4 bf 3f
       0.019084607660191925 0.12409670366691726
0001b0 27 e6 62 41 b8 22 d7 3f 17 e2 eb 90 32 c7 cc 3f
       0.3614941252268146 0.2248290259956469
0001c0 62 1b 00 3c f3 48 b2 3f 53 7a 4b b3 9f c2 0a 40
       0.07142563071111632 3.345031166783238
0001d0 11 f3 ce f6 a1 2d d2 bf 6d bb fc 6d 63 13 02 40
       -0.2840351972807165 2.2594669907334066
0001e0 f7 dc 74 e0 b5 ee f3 3f 3c 92 95 e0 f4 4e b0 3f
       1.245778919966879 0.06370478137029861
0001f0 d9 9f 10 b8 ca 2b bb 3f f9 a8 55 1d 6a 58 af 3f
       0.10613696092389037 0.06122142417992111
000200 1e b2 07 57 ea 8a 93 3f b7 72 ca 33 cd c4 bf 3f
       0.019084607660191925 0.12409670366691726
000210 27 e6 62 41 b8 22 d7 3f 17 e2 eb 90 32 c7 cc 3f
       0.3614941252268146 0.2248290259956469
000220 62 1b 00 3c f3 48 b2 3f 53 7a 4b b3 9f c2 0a 40
       0.07142563071111632 3.345031166783238
000230 11 f3 ce f6 a1 2d d2 bf 6d bb fc 6d 63 13 02 40
       -0.2840351972807165 2.2594669907334066
000240 b0 56 75 2a 6a d0 d3 3f e9 42 ef 08 3a 74 a1 bf
       0.3095956244118083 -0.034089864340449534
000250 ef 2a d6 e0 86 ba 59 bf a5 f5 77 a9 00 5f 87 bf
       -0.001570350377138648 -0.011411671802302356
000260 53 ab 28 32 4c bf 68 bf bd 59 38 af 76 da 74 bf
       -0.0030209053232019083 -0.005091155635020103
000270 37 e6 9c 1e 9b 2c ce 3f 2e 27 7b ad 79 6d 98 bf
       0.2357362651326171 -0.02385511514038468
000280 40 a6 8b 8a ae f2 af bf 9e d1 6e 1f dd ec d2 bf
       -0.06239839020947757 -0.29570701665513777
000290 1e 17 9f 16 ad 30 e0 bf ca 7f 6c 63 17 c4 e6 bf
       -0.5059419099640967 -0.7114369336959439
0002a0 f7 dc 74 e0 b5 ee f3 3f 3c 92 95 e0 f4 4e b0 3f
       1.245778919966879 0.06370478137029861
0002b0 d9 9f 10 b8 ca 2b bb 3f f9 a8 55 1d 6a 58 af 3f
       0.10613696092389037 0.06122142417992111
0002c0 1e b2 07 57 ea 8a 93 3f b7 72 ca 33 cd c4 bf 3f
       0.019084607660191925 0.12409670366691726
0002d0 27 e6 62 41 b8 22 d7 3f 17 e2 eb 90 32 c7 cc 3f
       0.3614941252268146 0.2248290259956469
0002e0 62 1b 00 3c f3 48 b2 3f 53 7a 4b b3 9f c2 0a 40
       0.07142563071111632 3.345031166783238
0002f0 11 f3 ce f6 a1 2d d2 bf 6d bb fc 6d 63 13 02 40
       -0.2840351972807165 2.2594669907334066
000300 56 b8 62 f5 a7 e6 d8 3f d6 ff 45 af 60 d2 a4 bf
       0.38907813037338224 -0.04066755427902506
000310 09 46 ca 84 9a 22 9d 3f d4 72 ac 23 53 2e 90 bf
       0.02845231471525803 -0.01580171494707623
000320 5c 31 d5 e8 79 97 64 3f 25 3d e8 7a 94 62 72 bf
       0.0025136357350331994 -0.004488544464506893
000330 f9 55 48 bd d6 3b c8 3f 20 3d c2 b9 9c 06 92 bf
       0.18932613603890028 -0.017603348577322042
000340 00 f5 4c 89 58 6f a0 bf 51 0a a2 20 04 06 da bf
       -0.032099501381233964 -0.40661719500363797
000350 9e ed fc 51 04 6d d3 bf df 4d c0 37 d3 39 cd bf
       -0.30352886206284235 -0.2283271810743903
000360 9c ae 7b 03 be c0 da 3f 69 92 45 6a 31 8b a6 bf
       0.41801405277394976 -0.044030708525302505
000370 37 b1 b6 10 08 c5 91 3f 0b 24 8f 74 4e 0d 88 bf
       0.017353178043479658 -0.01174413006983068
000380 9f 6b 6c bd 33 2c 55 3f 2c d6 fb 7b 25 66 72 bf
       0.0012922768853005152 -0.0044919456702153075
000390 c6 df 7b 5d 05 4a c8 3f de 0d ff 1f e0 95 94 bf
       0.18975894035952318 -0.02010297961511564
0003a0 88 5c 08 19 e3 7d 94 bf 44 41 45 9a 2e d0 d3 bf
       -0.020011471178886825 -0.3095814234302632
0003b0 77 8f cb 7d d9 7c c8 bf 5b 04 e4 bb 7d 4b a2 bf
       -0.19131010668126766 -0.035732201753497526
0003c0 73 d1 ed 0a 19 da da 3f c7 26 2d 64 19 63 a6 bf
       0.4195616347053807 -0.04372481677871814
0003d0 5b 2c ea 75 f4 15 85 3f 50 f4 e9 ce 5b ce 86 bf
       0.010295781944725293 -0.011135785343180299
0003e0 ff aa 8e 13 d1 fd 37 3f 9e c5 39 5c c8 4c 6b bf
       0.0003660808029574552 -0.0033325112615833615
0003f0 3d d6 3f 83 0d f1 c8 3f a1 a6 98 6d 95 5c 93 bf
       0.19485634716663638 -0.018907866300799218
000400 6e 71 a7 b3 f5 5d a1 bf 49 cf 7f 59 6a 8d d3 bf
       -0.03391998117487814 -0.3055063127533129
000410 7a 15 78 71 06 96 cb bf b0 1b 6a 59 8f f2 c4 bf
       -0.2155159048126441 -0.16365234247151994
000420 32 a6 17 3a 3c 18 d5 3f 51 77 e6 1f 4b 6b a2 bf
       0.3296042029674907 -0.03597483410270164
000430 e3 24 9d a8 4c 33 91 3f 41 21 fc 35 d9 97 8f bf
       0.01679725436341507 -0.015426346740711085
000440 f5 20 f4 64 33 39 57 3f 05 1e d9 ce c6 38 72 bf
       0.0014174463174772532 -0.00444867762923407
000450 dc c9 22 c5 69 e7 c4 3f c8 0e 83 68 ac 4a 95 bf
       0.16331216932083137 -0.020792669180777407
000460 17 7a 57 42 c0 d6 aa bf c8 91 a3 63 b0 ee d7 bf
       -0.05241967019877707 -0.373943421653419
000470 42 6a 10 7d 31 23 d4 bf fd 42 30 fc 81 5a d3 bf
       -0.3146480294541655 -0.30239915492806785
000480 89 c7 fc 7e ed f2 d8 3f c0 39 a7 58 34 08 a7 bf
       0.3898271312819977 -0.04498447019760787
000490 67 3f 74 7d 52 35 8a 3f 3e 08 25 b7 2d c9 79 bf
       0.012797016576342647 -0.0062953744657666105
0004a0 0c 68 69 4f 7c cb 4e 3f 75 e9 e4 82 55 ce 67 bf
       0.0009397847159775554 -0.002906004919308087
0004b0 c3 fc e0 3a ae be d0 3f ba 07 88 c8 81 43 9d bf
       0.2616382193554722 -0.028577831139052746
0004c0 d7 54 2c 7f f3 be 1e bf d5 2f 0c 9b 64 d9 b3 3f
       -0.000117286311973014 0.07753590379087368
0004d0 1c b7 60 d4 1d 67 c8 bf b7 b9 b7 11 a8 68 8d 3f
       -0.19064686651238893 0.014359772721005066
0004e0 f7 dc 74 e0 b5 ee f3 3f 3c 92 95 e0 f4 4e b0 3f
       1.245778919966879 0.06370478137029861
0004f0 d9 9f 10 b8 ca 2b bb 3f f9 a8 55 1d 6a 58 af 3f
       0.10613696092389037 0.06122142417992111
000500 1e b2 07 57 ea 8a 93 3f b7 72 ca 33 cd c4 bf 3f
       0.019084607660191925 0.12409670366691726
000510 27 e6 62 41 b8 22 d7 3f 17 e2 eb 90 32 c7 cc 3f
       0.3614941252268146 0.2248290259956469
000520 62 1b 00 3c f3 48 b2 3f 53 7a 4b b3 9f c2 0a 40
       0.07142563071111632 3.345031166783238
000530 11 f3 ce f6 a1 2d d2 bf 6d bb fc 6d 63 13 02 40
       -0.2840351972807165 2.2594669907334066
000540 62 a7 1a 3f 6e cc de 3f 03 4c 20 dd c2 b3 ab bf
       0.4812274566889895 -0.054105844014110026
000550 1b 85 a7 86 d2 d5 8e 3f 85 27 77 75 c8 a1 81 bf
       0.01505627129967251 -0.008609357914696645
000560 75 77 11 f0 71 69 34 bf 0c 8c 0b 36 77 56 34 bf
       -0.00031146079715493126 -0.0003103295367010157
000570 2d 79 f5 33 ce 04 cd 3f 58 16 d9 5f 67 e9 97 bf
       0.22670915162138652 -0.02335130236158131
000580 e9 50 78 ad cf 76 75 bf c8 86 50 f5 55 c9 bd bf
       -0.0052402603537482296 -0.11635339011311452
000590 c2 dd 09 75 89 b0 b9 bf 33 6a cf ec a7 10 c4 bf
       -0.10034998996149283 -0.15675829947470418
0005a0 f7 dc 74 e0 b5 ee f3 3f 3c 92 95 e0 f4 4e b0 3f
       1.245778919966879 0.06370478137029861
0005b0 d9 9f 10 b8 ca 2b bb 3f f9 a8 55 1d 6a 58 af 3f
       0.10613696092389037 0.06122142417992111
0005c0 1e b2 07 57 ea 8a 93 3f b7 72 ca 33 cd c4 bf 3f
       0.019084607660191925 0.12409670366691726
0005d0 27 e6 62 41 b8 22 d7 3f 17 e2 eb 90 32 c7 cc 3f
       0.3614941252268146 0.2248290259956469
0005e0 62 1b 00 3c f3 48 b2 3f 53 7a 4b b3 9f c2 0a 40
       0.07142563071111632 3.345031166783238
0005f0 11 f3 ce f6 a1 2d d2 bf 6d bb fc 6d 63 13 02 40
       -0.2840351972807165 2.2594669907334066
000600 b6 63 4b 19 01 e0 dd 3f 4a e2 72 b4 86 ab ab bf
       0.46679713697590886 -0.0540430159830448
000610 d1 cd 1a dd b9 c4 79 3f 1b f5 83 0a bb d1 81 bf
       0.006291128187217735 -0.008700810678869566
000620 1d 66 86 1e 98 93 4b bf 5f 66 55 2b 63 a0 71 bf
       -0.0008415692109792792 -0.004303347949951324
000630 c3 ca 74 f4 cc 5f c8 3f 52 4b ee cb 12 ee 92 bf
       0.19042360245074094 -0.018486303040457237
000640 72 16 b2 41 b4 5d aa bf 6e 10 03 65 c5 18 d4 bf
       -0.05149615575741685 -0.31401190628481046
000650 64 51 c1 09 3f 6c c3 bf c7 b4 c4 6e 50 3f df bf
       -0.15174091316533656 -0.4882393914911742
000660 f7 dc 74 e0 b5 ee f3 3f 3c 92 95 e0 f4 4e b0 3f
       1.245778919966879 0.06370478137029861
000670 d9 9f 10 b8 ca 2b bb 3f f9 a8 55 1d 6a 58 af 3f
       0.10613696092389037 0.06122142417992111
000680 1e b2 07 57 ea 8a 93 3f b7 72 ca 33 cd c4 bf 3f
       0.019084607660191925 0.12409670366691726
000690 27 e6 62 41 b8 22 d7 3f 17 e2 eb 90 32 c7 cc 3f
       0.3614941252268146 0.2248290259956469
0006a0 62 1b 00 3c f3 48 b2 3f 53 7a 4b b3 9f c2 0a 40
       0.07142563071111632 3.345031166783238
0006b0 11 f3 ce f6 a1 2d d2 bf 6d bb fc 6d 63 13 02 40
       -0.2840351972807165 2.2594669907334066
0006c0 20 2a cf 50 bd a2 d6 3f 0d e6 d7 d6 c0 0d a5 bf
       0.3536828316834164 -0.04112055418586289
0006d0 cc f0 4b 6d 7c a7 8f 3f af 21 50 bf 71 06 8e bf
       0.015456173024624674 -0.01466072907534585
0006e0 5e 3a b0 cd 49 05 5e 3f 95 8a 19 59 ed c1 73 bf
       0.0018323155152334607 -0.004823615208439454
0006f0 1b 10 8d f5 ac 3c c9 3f 72 04 43 97 a8 1b 99 bf
       0.19716417302891007 -0.024519571525847224
000700 0b 7b 74 3f b3 d8 ab bf 39 fe 7a a1 35 d3 db bf
       -0.054387666221591933 -0.43476620454382303
000710 a2 15 59 97 8c 2d dc bf d5 b2 8a 30 4e 96 e5 bf
       -0.4402801015861205 -0.6745978305894719
000720 ee b9 34 5b 45 92 da 3f 28 22 63 8b 7a bb a8 bf
       0.4151776686366294 -0.048305348887485444
000730 9c c8 19 10 72 65 82 3f fd 52 40 81 0a bf 84 bf
       0.008982554546694659 -0.010130006856380097
000740 78 fb cc 0a 9c f2 64 bf c4 cc 49 0b 4c e8 74 bf
       -0.00255709149351396 -0.005104348227735037
000750 e7 80 ed fb 01 fc cc 3f b3 ac 81 3a c2 26 98 bf
       0.22644066620978906 -0.02358535272689428
000760 6d 9e 4d 04 26 7c ae bf 49 44 af d6 9f 20 d2 bf
       -0.059540927911083986 -0.2832412334947248
000770 a2 ef af f4 de 10 d5 bf ff 9a 44 22 8b f3 e7 bf
       -0.32915471930732043 -0.7484794301315957
000780 86 37 41 61 ca 94 db 3f 57 1f 07 61 70 4d a7 bf
       0.4309564542535259 -0.04551268753453879
000790 1c 12 44 80 1a 85 8a 3f a6 d0 77 30 d7 fd 8c bf
       0.012949187316288628 -0.014156037489535155
0007a0 1d 98 fc 57 5a 04 5c bf 5b a4 a6 d6 4a 12 7e bf
       -0.0017100221884418572 -0.007341663682759759
0007b0 52 c3 72 c0 ce 2c c6 3f 5a 1c 91 66 67 85 91 bf
       0.17324242016686725 -0.01711045802610687
0007c0 97 03 af 03 0c 41 ac bf ff 08 c1 e5 e9 57 d6 bf
       -0.05518376870123303 -0.349115824097808
0007d0 6e 11 aa f6 ec 9f c4 bf c0 2b 7d 45 6a 3f d5 bf
       -0.1611305431762377 -0.3319955519297615
0007e0 58 de bb bd 3f a6 d7 3f d8 eb 3f 55 d4 1e a4 bf
       0.36952203301141173 -0.03929770985265407
0007f0 21 a3 3f 34 0c 59 7c 3f cd f4 71 67 3e e7 8d bf
       0.006920859977960687 -0.01460121873082656
