3_Mapping_&_Model_Explanation/ERP_automl_model_RH2Mmean_shap.npy (npy, 537728 bytes, 1 tensors)

array f8 [5600, 12]
0	0xc0016430a3fdd415	-2.1739208995663923
1	0x3fb07ba3d555f156	0.06438659628287743
2	0xbfcddb201c1cebc4	-0.2332496773977636
3	0xbfd49b0d314e640f	-0.32196359458026874
4	0xbfbbfa98d830c4f0	-0.1092925575074053
5	0x3fc8419d6eb7972d	0.1895024099932753
6	0xbfd0194d2a3fff42	-0.25154427648520905
7	0x3fd535b7e6580d4f	0.331403708405749
8	0x3fcfe8ed19468027	0.24929584249639555
9	0x40261966856a832e	11.049610299350743
10	0x40029141bb0bdbe3	2.320926152514845
11	0xc0297eb249cbb8c4	-12.747453981512429
12	0xc0016430a3fdd415	-2.1739208995663923
13	0x3fb07ba3d555f156	0.06438659628287743
14	0xbfcddb201c1cebc4	-0.2332496773977636
15	0xbfd49b0d314e640f	-0.32196359458026874
16	0xbfbbfa98d830c4f0	-0.1092925575074053
17	0x3fc8419d6eb7972d	0.1895024099932753
18	0xbfd0194d2a3fff42	-0.25154427648520905
19	0x3fd535b7e6580d4f	0.331403708405749
20	0x3fcfe8ed19468027	0.24929584249639555
21	0x40261966856a832e	11.049610299350743
22	0x40029141bb0bdbe3	2.320926152514845
23	0xc0297eb249cbb8c4	-12.747453981512429
24	0xc0016430a3fdd415	-2.1739208995663923
25	0x3fb07ba3d555f156	0.06438659628287743
26	0xbfcddb201c1cebc4	-0.2332496773977636
27	0xbfd49b0d314e640f	-0.32196359458026874
28	0xbfbbfa98d830c4f0	-0.1092925575074053
29	0x3fc8419d6eb7972d	0.1895024099932753
30	0xbfd0194d2a3fff42	-0.25154427648520905
31	0x3fd535b7e6580d4f	0.331403708405749
32	0x3fcfe8ed19468027	0.24929584249639555
33	0x40261966856a832e	11.049610299350743
34	0x40029141bb0bdbe3	2.320926152514845
35	0xc0297eb249cbb8c4	-12.747453981512429
36	0xc0016430a3fdd415	-2.1739208995663923
37	0x3fb07ba3d555f156	0.06438659628287743
38	0xbfcddb201c1cebc4	-0.2332496773977636
39	0xbfd49b0d314e640f	-0.32196359458026874
40	0xbfbbfa98d830c4f0	-0.1092925575074053
41	0x3fc8419d6eb7972d	0.1895024099932753
42	0xbfd0194d2a3fff42	-0.25154427648520905
43	0x3fd535b7e6580d4f	0.331403708405749
44	0x3fcfe8ed19468027	0.24929584249639555
45	0x40261966856a832e	11.049610299350743
46	0x40029141bb0bdbe3	2.320926152514845
47	0xc0297eb249cbb8c4	-12.747453981512429
48	0xc0016430a3fdd415	-2.1739208995663923
49	0x3fb07ba3d555f156	0.06438659628287743
50	0xbfcddb201c1cebc4	-0.2332496773977636
51	0xbfd49b0d314e640f	-0.32196359458026874
52	0xbfbbfa98d830c4f0	-0.1092925575074053
53	0x3fc8419d6eb7972d	0.1895024099932753
54	0xbfd0194d2a3fff42	-0.25154427648520905
55	0x3fd535b7e6580d4f	0.331403708405749
56	0x3fcfe8ed19468027	0.24929584249639555
57	0x40261966856a832e	11.049610299350743
58	0x40029141bb0bdbe3	2.320926152514845
59	0xc0297eb249cbb8c4	-12.747453981512429
60	0xc0016430a3fdd415	-2.1739208995663923
61	0x3fb07ba3d555f156	0.06438659628287743
62	0xbfcddb201c1cebc4	-0.2332496773977636
63	0xbfd49b0d314e640f	-0.32196359458026874
64	0xbfbbfa98d830c4f0	-0.1092925575074053
65	0x3fc8419d6eb7972d	0.1895024099932753
66	0xbfd0194d2a3fff42	-0.25154427648520905
67	0x3fd535b7e6580d4f	0.331403708405749
68	0x3fcfe8ed19468027	0.24929584249639555
69	0x40261966856a832e	11.049610299350743
70	0x40029141bb0bdbe3	2.320926152514845
71	0xc0297eb249cbb8c4	-12.747453981512429
72	0xbfeb55999e74bd56	-0.854199227795031
73	0x3fbc9434dd46dc46	0.11163645174279777
74	0xbf87abd42724c511	-0.011558206028527114
75	0x3fab2262ce009a81	0.052996719023487245
76	0xbf96b6be0e6f36c7	-0.022181481963164964
77	0x3f99b2238fb8148b	0.025093608519473547
78	0xbff4537b1bacbaf3	-1.2703810769123123
79	0x3fc49e413bbe59a1	0.1610795537678316
80	0x3ff96267fa1fadc8	1.5865249414881522
81	0x3fb73fb7910de4b2	0.09081599513401065
82	0x4010fd0e91c0600a	4.2471258901277995
83	0x401466b0e6e1fcd9	5.100284202140039
84	0xc0016430a3fdd415	-2.1739208995663923
85	0x3fb07ba3d555f156	0.06438659628287743
86	0xbfcddb201c1cebc4	-0.2332496773977636
87	0xbfd49b0d314e640f	-0.32196359458026874
88	0xbfbbfa98d830c4f0	-0.1092925575074053
89	0x3fc8419d6eb7972d	0.1895024099932753
90	0xbfd0194d2a3fff42	-0.25154427648520905
91	0x3fd535b7e6580d4f	0.331403708405749
92	0x3fcfe8ed19468027	0.24929584249639555
93	0x40261966856a832e	11.049610299350743
94	0x40029141bb0bdbe3	2.320926152514845
95	0xc0297eb249cbb8c4	-12.747453981512429
96	0xbff21fd56b34c084	-1.1327718913780993
97	0x3fc5454554783316	0.16617647766579385
98	0xbfba358117140d7f	-0.10237891019283117
99	0x3fb730715399334a	0.09058292666413795
100	0xbf621bcdf3e0624d	-0.0022105238449621535
101	0x3f9cb32f4f045d12	0.028027285764520356
102	0xbfe97290067fc924	-0.7952346922814155
103	0x3fb0d2dadde9a71c	0.06571739118376424
104	0x3ff72eae7d510028	1.448896874921056
105	0x3fe176788f4b59f0	0.5457117842404937
106	0x4001aaf798e1adab	2.208480066668661
107	0x3ff726af418919eb	1.4469444808943261
108	0xbff2e57037915107	-1.1810152216540375
109	0x3fc404c0c48a620e	0.15639505001742332
110	0xbface382efcedaf8	-0.05642327477783299
111	0x3fae6ff78bd00314	0.05944799024292116
112	0x3f7f8bf4b834f047	0.0077018317563749055
113	0x3f868a152c712313	0.01100555936695139
114	0xbfe8d6d7977a3cd4	-0.7762258490128269
115	0x3fb6ef4eac19ef32	0.08958903981868785
116	0x3ff1f28b0b6afe97	1.1217146345151485
117	0xbfa5384309bc24a1	-0.04144486898264544
118	0x3ff5f0cdceade76d	1.3712900231753011
119	0x3fb98578f38100ab	0.09969287819785914
120	0xbff397377ce39ec3	-1.2244181517107087
121	0x3fc53775a422118b	0.16575499071417385
122	0xbfab6d86c52e17c1	-0.053569995469885175
123	0x3fac381c90e95aa2	0.05511559742870033
124	0x3f97208d675e5aa0	0.022585114893071023
125	0x3f8620ad57a071d6	0.010804514156966965
126	0xbfe9be52ab20fd6a	-0.8044827787743263
127	0x3fb7b10a097144c2	0.09254515390900322
128	0x3ff342b3823db4ce	1.20378447413832
129	0xbfb0e8a47cc8d8ac	-0.06604984327791169
130	0x3ff7c89c4309152a	1.4864771479199796
131	0x3fedd6c6ab92a174	0.9324677802115233
132	0xbfeecddf83393fad	-0.9626309931718332
133	0x3fc43c9c72bfe1ef	0.158099704771089
134	0xbfb3dc2bf24ab521	-0.07757830300643721
135	0x3fb27b58148aa898	0.07219458104614984
136	0xbf9317134031f299	-0.018642712395819137
137	0x3f8c76c7d8aa2b4f	0.013898431109984037
138	0xbfe5bdc128ab1785	-0.6794133943846964
139	0x3fb2813f673560c6	0.07228466291178667
140	0x3ff148206b000764	1.080109041184607
141	0x3fe32513328b3898	0.5982757556137299
142	0x40041ef3cb87d745	2.515113439639125
143	0x3ffefdc1dd3d88d6	1.9369524614526674
144	0xbff0c7d0cf886342	-1.048783121752607
145	0x3fc32923b132d010	0.14969297554273497
146	0xbf977302ae1dd08b	-0.02289966762278132
147	0x3f95be2dfc51b917	0.021233290219634684
148	0x3f86b8627ec677c9	0.011093873494981825
149	0x3f89d0538f517825	0.012604382334924289
150	0xbff0563b1f75032e	-1.021052477721422
151	0x3fbc85d3b15ede81	0.11141703682266703
152	0x3fe218015ededf76	0.565430341047416
153	0xbfe71db3bf4b4648	-0.7223757492267362
154	0x3ff78f8db726101b	1.4725472597356262
155	0xbfcc94e3fb033468	-0.22329377895804048
156	0xc0016430a3fdd415	-2.1739208995663923
157	0x3fb07ba3d555f156	0.06438659628287743
158	0xbfcddb201c1cebc4	-0.2332496773977636
159	0xbfd49b0d314e640f	-0.32196359458026874
160	0xbfbbfa98d830c4f0	-0.1092925575074053
161	0x3fc8419d6eb7972d	0.1895024099932753
162	0xbfd0194d2a3fff42	-0.25154427648520905
163	0x3fd535b7e6580d4f	0.331403708405749
164	0x3fcfe8ed19468027	0.24929584249639555
165	0x40261966856a832e	11.049610299350743
166	0x40029141bb0bdbe3	2.320926152514845
167	0xc0297eb249cbb8c4	-12.747453981512429
168	0xbff5ee879605acd2	-1.3707347736588429
169	0x3fc6d547960679df	0.17838377786115608
170	0xbfaba1d39abb47fe	-0.053969013822680253
171	0x3fa4447eb84f35fe	0.039585075377186016
172	0x3f9d01e4e57b2f26	0.02832753801958101
173	0x3f85df14cf2a165a	0.010679400036006804
174	0xbfec89d266bf6bd9	-0.891823959998301
175	0x3fbb303a22bf1f8b	0.10620463703446441
176	0x3fecf40abd7b7fb9	0.9047902775600881
177	0xbfd59cdb2553e4c2	-0.3376987328079616
178	0x3fea07650880a5ca	0.8134026685776743
179	0x3ff01e3f56551976	1.0073846218452593
180	0xc0016430a3fdd415	-2.1739208995663923
181	0x3fb07ba3d555f156	0.06438659628287743
182	0xbfcddb201c1cebc4	-0.2332496773977636
183	0xbfd49b0d314e640f	-0.32196359458026874
184	0xbfbbfa98d830c4f0	-0.1092925575074053
185	0x3fc8419d6eb7972d	0.1895024099932753
186	0xbfd0194d2a3fff42	-0.25154427648520905
187	0x3fd535b7e6580d4f	0.331403708405749
188	0x3fcfe8ed19468027	0.24929584249639555
189	0x40261966856a832e	11.049610299350743
190	0x40029141bb0bdbe3	2.320926152514845
191	0xc0297eb249cbb8c4	-12.747453981512429
192	0xbff78f6a8e59d75e	-1.472513729151124
193	0x3fc9cc908bfe1b2a	0.20155531726433057
194	0xbf9bb7a219325998	-0.02706769255436256
195	0x3fa70c307d77feb7	0.04501487285233224
196	0xbf9347076c3cd4e0	-0.018825641614246602
197	0x3f8de54c88dd960c	0.014597509314351796
198	0xbfe98b98b5a8cdd8	-0.7982905910525302
199	0x3fba12eb516384f9	0.10185118424444174
200	0x3ff38a116784d879	1.2212080043514375
201	0x3f910bf862c78229	0.016647225407611686
202	0x3ff0f43818d21554	1.0596238107258005
203	0x400a0085a4794f93	3.250254902793992
204	0xc0016430a3fdd415	-2.1739208995663923
205	0x3fb07ba3d555f156	0.06438659628287743
206	0xbfcddb201c1cebc4	-0.2332496773977636
207	0xbfd49b0d314e640f	-0.32196359458026874
208	0xbfbbfa98d830c4f0	-0.1092925575074053
209	0x3fc8419d6eb7972d	0.1895024099932753
210	0xbfd0194d2a3fff42	-0.25154427648520905
211	0x3fd535b7e6580d4f	0.331403708405749
212	0x3fcfe8ed19468027	0.24929584249639555
213	0x40261966856a832e	11.049610299350743
214	0x40029141bb0bdbe3	2.320926152514845
215	0xc0297eb249cbb8c4	-12.747453981512429
216	0xbff1ba4382c8aee2	-1.107974539637262
217	0x3fc73ddc236bae10	0.18157531480333988
218	0xbfb0fcdcfc7b38bf	-0.06635838665099224
219	0x3fb173e76c0ab959	0.06817480457059356
220	0xbf8a7f8fb026e7c2	-0.012938616336089729
221	0x3f8da0cae0e04b48	0.014466843593287884
222	0xbff08936545dee7a	-1.033499078329355
223	0x3fb7d59f170df62a	0.09310335457663457
224	0x3ff890938b6251bb	1.5352969593705967
225	0x3fe60e862d220f17	0.6892729646210424
226	0x400bd8bdb0d5f57d	3.4808305564208113
227	0x4012b6cd0118c2fd	4.678516404281933
228	0xbff55f40b7044a50	-1.3357550763218065
229	0x3fc8806e30e55920	0.19141938579077422
230	0xbfa318efc783c996	-0.037299626450379694
231	0x3f98c19517be8f49	0.02417595822738797
232	0xbf8a60f9f7204ad0	-0.012880280355635959
233	0x3f92b509f7c1a2b1	0.018268733736848734
234	0xbff17d3ad5ce7fe7	-1.09307368772715
235	0x3fc0c6977d8aefa9	0.1310605395318565
236	0x3ff5b313f5b73753	1.3562202070492801
237	0x3fb518693c2b2129	0.08240373343426612
238	0x4005140b14814399	2.634786758608652
239	0x40153aba944a7cef	5.3073523683990365
240	0xbff4c584c801d35a	-1.2982223332193912
241	0x3fc808d1f25571e1	0.1877691682119709
242	0xbfa88f64ee833e3f	-0.04796901141673659
243	0x3fabb87993a07549	0.054141806860779136
244	0xbf5acfba4d39a94c	-0.0016364402153166866
245	0x3f8b9a237c8f3fdb	0.01347758983493457
246	0xbfe53c8eeba9d6eb	-0.6636423685838201
247	0x3fb55c54de4eacbd	0.0834401171438683
248	0x3ff26f52579c502c	1.1521781370438573
249	0x3fbec44085b098f6	0.12018206848060572
250	0x3ff344ec92bd9eed	1.2043271762904013
251	0x40020e62aa0e795f	2.257024124685969
252	0xbff4698b35f5fa70	-1.2757675273748212
253	0x3fc818e73e46fc3b	0.1882599882210075
254	0xbfa3e9929a24e774	-0.03889139300959146
255	0x3fa43f157e24e19b	0.0395437923893411
